agent1_checkpoint_critic.pth (torch_old, 164610 bytes, 5 tensors)

fc1.weight f4 [200, 52]
-0.18154514 0.30368507 -0.019368513 0.50192165 -0.109941475 0.017023774 -0.006450959 0.5425848
-0.036142472 1.0017289 0.01651517 -0.055737723 -0.14828287 -0.3902914 -0.030722883 -0.066803746
0.15507804 1.1339577 0.009441183 -0.54527926 0.46645656 0.032264624 0.013295342 -0.61166906
-0.0020757066 -0.1847305 -0.04586539 -0.040073447 0.15754963 0.0632312 0.0072065396 -0.05230397
0.02283381 -0.21176517 0.043018553 -0.059486378 0.13579224 -0.27241844 -0.041341588 -0.038459525
0.09847164 -0.16776605 -0.0024431976 -0.062739216 -0.37755448 0.024422433 0.0012591796 -0.0057738493
0.028593458 0.06383587 0.16254008 0.44469082 -0.13281566 0.80121875 -0.0053030606 -0.19254203
-0.10664365 -0.07594164 -0.037888635 -0.13414891 -0.07870953 0.64250064 0.029398931 0.0033222586
-0.03438821 0.037582427 0.01165072 -0.06530776 -0.07278649 0.55646163 0.040772602 0.06275361
-0.35564116 -0.6019769 -0.023090158 0.06685362 0.13487053 0.16884513 -0.012855563 0.060120746
0.11022137 -0.13104469 -0.0015257762 -0.028181631 0.0845369 0.16047809 0.0054555815 0.061745092
-0.02387388 -0.0012244739 0.00026203494 0.03842473 -0.012062344 0.22534972 -0.026281618 -0.069166146
0.30308664 -0.5278529 0.047081452 -0.042273097 0.5766995 -0.086930774 0.08112196 -0.22668344
0.27464315 0.17031749 -0.009621216 -0.083785124 0.067730896 -0.25877407 -0.08256594 -0.11144575
0.3057489 0.09746967 0.016905004 0.1004058 0.050628085 -0.21607967 -0.08673058 0.041169688
0.333069 0.24813232 -0.007104214 0.16746885 0.027003067 -0.19004445 0.006609621 0.09766433
0.2829373 0.18119998 -0.03222371 0.0060541076 0.0197419 -0.1791269 -0.010672905 0.038771987
0.3288857 0.18732762 0.00956532 0.067116685 0.013967608 -0.25333688 -0.0051618028 0.09995429
0.23987073 0.1776686 -0.00039098805 -0.084277414 0.009724414 -0.10848953 -0.026694763 -0.049946904
0.14829123 0.11339757 0.13806811 -0.036165044 -0.07578738 -0.19229394 -0.003600723 0.02178213
-0.3660868 0.483809 -0.005050401 -0.015427482 -0.11989245 -0.04041462 0.05392326 0.052349035
-0.005563506 -0.07748583 -0.06013556 -0.063191526 -0.09210555 -0.028691908 -0.038525943 -0.051709067
0.38050684 -0.54810697 0.016774941 0.052545056 -0.019696463 -0.042006325 -0.010933369 0.032978732
0.26666978 0.46592337 0.010615239 -0.0063016186 -0.016994566 -0.009616213 0.0015338551 0.00672132
0.080656774 -0.03690552 0.0038462675 0.01287692 0.05707619 0.013430178 0.020907873 0.0084347045
-0.3918171 -0.5897146 -0.022197114 -0.09250515 -0.074444205 0.084721 -0.08005264 -0.026302077
0.028703805 -0.34745926 -0.02207086 0.063747376 0.49939653 -0.0030250421 0.011402455 -0.015294518
0.06774394 -0.39994848 -0.023565207 -0.00878116 0.09372484 0.14277013 0.030272327 -0.024439404
0.0937953 -0.48827428 0.040710427 0.022301706 -0.41101333 0.22390509 -0.05068348 -0.05956691
-0.029736346 0.7038306 0.05522938 0.033503145 -0.49200642 -0.038768236 -0.03467988 -0.05115654
-0.023037914 0.32424873 0.019422945 -0.054879855 -0.06734999 0.04555875 -0.029968446 -0.0206751
0.020408602 0.18645835 -0.050622758 0.017205467 0.42972773 0.14939843 0.051525414 -0.0345585
00000000: f8e6 39be 9c7c 9b3e b7aa 9ebc f07d 003f
00000010: ff28 e1bd 7175 8b3c 9162 d3bb d6e6 0a3f
00000020: 210a 14bd a738 803f d24a 873c 3d4d 64bd
00000030: 77d7 17be 46d4 c7be 8eae fbbc 67d0 88bd
00000040: c7cc 1e3e 8725 913f 31af 1a3c 6c97 0bbf
00000050: 65d3 ee3e e927 043d b5d4 593c 5896 1cbf
00000060: 9408 08bb fe29 3dbe 59dd 3bbd 0e24 24bd
00000070: b154 213e 5c7f 813d d624 ec3b b03c 56bd
00000080: f80d bb3c f8d8 58be 3934 303d fda7 73bd
00000090: 1f0d 0b3e 6e7a 8bbe cc55 29bd bc87 1dbd
000000a0: 80ab c93d ddca 2bbe 0e1e 20bb 6b7d 80bd
000000b0: d24e c1be 8e11 c83c 0e0b a53a 8f32 bdbb
000000c0: d43c ea3c 61bc 823d e870 263e 84ae e33e
000000d0: d400 08be ac1c 4d3f 4cc5 adbb bd29 45be
000000e0: fc67 dabd 4a87 9bbd 1d31 1bbd 555e 09be
000000f0: 7632 a1bd ec7a 243f 07d6 f03c 40ba 593b
00000100: a7da 0cbd 08f0 193d a9e2 3e3c 13c0 85bd
00000110: 1511 95bd 4574 0e3f 2c01 273d f784 803d
00000120: 9916 b6be 281b 1abf 9227 bdbc 8dea 883d
00000130: 801b 0a3e bde5 2c3e 24a0 52bc 2c41 763d
00000140: bebb e13d 9430 06be 8efc c7ba 2add e6bc
00000150: af21 ad3d 5e54 243e bcc4 b23b 6ce8 7c3d
00000160: 2893 c3bc 877e a0ba bc61 8939 4063 1d3d
00000170: 23a1 45bc 14c2 663e 8c4c d7bc fba6 8dbd
00000180: 2c2e 9b3e 5e21 07bf 7bd8 403d 8e26 2dbd
00000190: 94a2 133f c308 b2bd 4523 a63d b41f 68be
000001a0: 079e 8c3e b567 2e3e 4ea2 1dbc 8997 abbd
000001b0: 7fb6 8a3d 097e 84be 5518 a9bd ab3d e4bd
000001c0: 1f8b 9c3e 2e9e c73d 5d7c 8a3c 8ea1 cd3d
000001d0: 655f 4f3d fd43 5dbe cd9f b1bd 8ca1 283d
000001e0: 0588 aa3e 6616 7e3e 77ca e8bb f47c 2b3e
000001f0: 8935 dd3c 039b 42be 8595 d83b 3c04 c83d
00000200: 28dd 903e 7d8c 393e 02fd 03bd 8961 c63b
00000210: c4b9 a13c 0b6d 37be 68dd 2ebc 60cf 1e3d
00000220: b563 a83e d0d2 3f3e dcb7 1c3c 7974 893d
00000230: 65d8 643c 5fb5 81be 5724 a9bb d6b4 cc3d
00000240: aca0 753e c2ee 353e 87fd ccb9 a399 acbd
00000250: 2653 1f3c c22f debd faae dabc 2095 4cbd
00000260: a8d9 173e fc3c e83d ba61 0d3e cc21 14bd
00000270: 6a36 9bbd b4e8 44be 1cfa 6bbb 7070 b23c
00000280: bb6f bbbe d0b5 f73e d67d a5bb 8dc3 7cbc
00000290: 2c8a f5bd cd89 25bd a3de 5c3d f16b 563d
000002a0: 124e b6bb e4b0 9ebd b450 76bd 8f6a 81bd
000002b0: d6a1 bcbd 4b0b ebbc 61cd 1dbd e3cc 53bd
000002c0: cbd1 c23e bd50 0cbf 9a6b 893c 7c39 573d
000002d0: 7a5a a1bc d30e 2cbd e021 33bc b514 073d
000002e0: f188 883e 828d ee3e 8aeb 2d3c cf7d cebb
000002f0: 3038 8bbc 528d 1dbc a30b c93a 853e dc3b
00000300: 612f a53d 3e2a 17bd a911 7c3b b8f9 523c
00000310: b9c8 693d 400a 5c3c fd46 ab3c b731 0a3c
00000320: 409c c8be 89f7 16bf b9d6 b5bc 5773 bdbd
00000330: 3476 98bd 3482 ad3d a3f2 a3bd 7477 d7bc
00000340: 3e24 eb3c 2ee6 b1be f3cd b4bc fc8d 823d
00000350: e7b0 ff3e c93f 46bb 5dd1 3a3c dc95 7abc
00000360: 56bd 8a3d 0cc6 ccbe d20b c1bc dbde 0fbc
00000370: cff2 bf3d 5532 123e acfd f73c 2535 c8bc
00000380: c017 c03d 16ff f9be fabf 263d 11b2 b63c
00000390: 5770 d2be 6047 653e 7b99 4fbd 6ffc 73bd
000003a0: a399 f3bc 3e2e 343f 3438 623d 983a 093d
000003b0: 44e8 fbbe 71cb 1ebd 7d0c 0ebd 8589 51bd
000003c0: 02ba bcbc ee03 a63e de1c 9f3c b3c9 60bd
000003d0: cbee 89bd d09b 3a3d 6380 f5bc d45e a9bc
000003e0: f12f a73c f0ee 3e3e cf59 4fbd 7bf2 8c3c
000003f0: 4605 dc3e e7fb 183e 500c 533d 378d 0dbd

fc1.bias f4 [200]
-0.98800826 0.0083662225 -0.3566609 0.14902145 -0.30048102 -0.41905713 -0.5107388 -0.28930938
-0.30104163 -0.12097989 -0.62088937 -0.14545433 -0.16929872 -0.16784254 -0.25892726 -0.1855972
-0.41490468 -0.30223572 -0.78647834 -0.21597752 -0.533853 -0.2702719 -0.22515891 -0.156239
-0.30255908 -0.04710154 -0.75334656 -0.08562068 -0.17271854 -0.12958302 -0.06789091 0.16562931
-0.37582856 0.20047775 -0.12867355 -0.40413874 -0.3269513 -0.12448484 0.112131685 -0.46759704
-0.5943666 -0.63752645 -0.015234231 -0.15622051 -0.43901566 -0.62426174 -0.18597706 -0.45354974
-0.3558664 -0.25410348 -0.18295185 -0.34602085 -0.1324819 -0.48557818 -0.20754004 -0.16115458
-0.24214388 -0.092491895 -0.05576187 -0.21937966 -0.123644456 0.38699582 -0.14697865 0.1314761
-0.16574256 -0.101276904 -0.39722422 0.46721193 -0.6262875 -0.22121881 -0.38917348 0.0475073
-0.32316762 0.03885978 -0.34699425 -0.25551715 -0.30445713 0.28782097 -0.657103 -0.57792705
0.082817666 -0.46821156 -0.22286631 -0.09728354 -0.19365956 -0.12506339 -0.48410732 -0.07081407
-0.27674502 -0.13887039 -0.43202582 -0.052295808 -0.20839559 -0.42214507 0.13903484 -0.22264157
-0.12177016 -0.13468294 -0.08461348 -0.18488668 -0.2532435 -0.4613822 0.014572417 -0.57326955
0.1746512 0.17103457 -0.116471365 -0.42181414 -0.5529586 -0.40639752 -0.13436516 -0.35883158
-0.5137386 -0.084634736 0.004032046 -0.30668855 -0.15990613 -0.08857484 -0.03193344 -0.017451761
0.09107871 -0.13159159 -0.2300918 -0.39998984 -0.3171399 -0.17118372 0.124669336 -0.19862778
-0.48097515 -0.23077945 -0.029295096 0.1820904 0.01901557 -0.13550101 -0.22483595 -0.23325163
0.14089897 -0.32481208 -0.28627142 -0.34178287 -0.24099837 -0.23909836 -0.28261116 -0.3502486
-0.15581068 -0.2852296 -0.1347064 -0.1527671 -0.7133598 -0.5818777 -0.08307887 -0.14224607
-0.17871629 -0.5015867 -0.16313149 -0.37487948 0.14023955 -0.60950994 -0.6902982 -0.37040618
0.18262413 -0.070711955 0.021029007 -0.43537608 0.8148455 -0.1844096 -0.17089197 -0.298685
0.08242033 -0.26740974 -0.21328813 -0.4149085 -0.06880717 -0.006470957 -0.35090417 -0.11808537
-0.41276327 -0.21644183 -0.22479177 -0.07825637 -0.16801974 -0.20728593 -0.1755786 -0.21225856
-0.2003387 -0.19404016 -0.54199934 -0.1729038 -0.2219578 -0.38935372 -0.17920196 -0.055376776
-0.13282894 -0.23965183 -0.20596647 -0.2763972 -0.1849294 -0.4358355 -0.103320844 -0.2782407
00000000: 1cee 7cbf 7b12 093c 429c b6be 1499 183e
00000010: a6d8 99be a88e d6be c7bf 02bf 5c20 94be
00000020: 2122 9abe 4ec4 f7bd 9bf2 1ebf fbf1 14be
00000030: a55c 2dbe eade 2bbe 1d92 84be 310d 3ebe
00000040: 636e d4be a4be 9abe a556 49bf 3629 5dbe
00000050: 97aa 08bf 1461 8abe 0f90 66be 1efd 1fbe
00000060: 06e9 9abe 8bed 40bd 52db 40bf e559 afbd
00000070: 21dd 30be 69b1 04be 640a 8bbd bb9a 293e
00000080: 9a6c c0be 0a4a 4d3e 00c3 03be 46eb cebe
00000090: 2966 a7be e8f1 febd 4ca5 e53d e168 efbe
000000a0: 6928 18bf ef34 23bf ff98 79bc 45f8 1fbe
000000b0: a9c6 e0be 9ecf 1fbf c570 3ebe ac37 e8be
000000c0: 1f34 b6be da19 82be bb57 3bbe a529 b1be
000000d0: 56a9 07be b49d f8be 6085 54be b505 25be
000000e0: 91f4 77be 646c bdbd 8f66 64bd 10a5 60be
000000f0: 4e39 fdbd 5124 c63e 9281 16be aca1 063e
00000100: 6bb8 29be 446a cfbd f960 cbbe 6736 ef3e
00000110: 6154 20bf 2f87 62be bf41 c7be 0497 423d
00000120: 3a76 a5be 6f2b 1f3d 3ba9 b1be 25d3 82be
00000130: cee1 9bbe 455d 933e e737 28bf 07f3 13bf
00000140: 4f9c a93d 6db9 efbe 1137 64be 983c c7bd
00000150: b14e 46be 9e10 00be eadc f7be f806 91bd
00000160: 86b1 8dbe 0a34 0ebe 7d32 ddbe 2134 56bd
00000170: a765 55be 6623 d8be 265f 0e3e 27fc 63be
00000180: a262 f9bd 53ea 09be d549 adbd ef52 3dbe
00000190: 22a9 81be 4a3a ecbe 26c1 6e3c cbc1 12bf
000001a0: c4d7 323e b023 2f3e 8a88 eebd 06f8 d7be
000001b0: b28e 0dbf 5613 d0be 0597 09be c6b8 b7be
000001c0: 5f84 03bf fa54 adbd 411f 843b 4806 9dbe
000001d0: 6fbe 23be ba66 b5bd a4cc 02bd fff6 8ebc
000001e0: 7a87 ba3d f2bf 06be 2f9d 6bbe 78cb ccbe
000001f0: 2960 a2be c94a 2fbe a352 ff3d 1565 4bbe
00000200: 6042 f6be 7351 6cbe 45fc efbc e875 3a3e
00000210: 8ac6 9b3c c7c0 0abe 653b 66be 84d9 6ebe
00000220: d247 103e c54d a6be 2b92 92be 2afe aebe
00000230: 47c8 76be 33d6 74be 69b2 90be c953 b3be
00000240: d68c 1fbe 9d09 92be 79f0 09be fb6e 1cbe
00000250: bf9e 36bf f0f5 14bf 4125 aabd f4a8 11be
00000260: 6701 37be fc67 00bf f10b 27be 34f0 bfbe
00000270: f59a 0f3e d808 1cbf 62b7 30bf e1a5 bdbe
00000280: d201 3b3e 6ed1 90bd 0645 ac3c 9de9 debe
00000290: b799 503f dfd5 3cbe 4efe 2ebe 3eed 98be
000002a0: fdcb a83d eee9 88be 3468 5abe e36e d4be
000002b0: c6ea 8cbd 520a d4bb b6a9 b3be bed6 f1bd
000002c0: b555 d3be eda2 5dbe d02f 66be e044 a0bd
000002d0: 5e0d 2cbe c342 54be e0ca 33be 4f5a 59be
000002e0: 9725 4dbe 77b2 46be 78c0 0abf b20d 31be
000002f0: e848 63be 5f59 c7be b880 37be c2d2 62bd
00000300: 4f04 08be 4a67 75be e0e8 52be ef83 8dbe
00000310: 225e 3dbe d525 dfbe e199 d3bd 9175 8ebe

fc2.weight f4 [150, 200]
-0.10504223 -0.0048834654 -0.06823815 -0.0042182673 -0.041595384 -0.013052666 -0.08453485 -0.0197452
0.0457451 -0.08324361 -0.028167818 0.05019434 -0.07951838 -0.019711265 0.02442627 -0.09827094
0.020061746 -0.051851287 0.02657613 0.05472715 0.056569945 -0.0188087 -0.060334984 -0.020846486
-0.07648242 0.009188409 0.028440071 -0.07411968 0.0032452361 -0.046292536 0.00360366 -0.11030923
-0.020452952 -0.016229551 -0.027490553 -0.071613856 -0.006584503 -0.040276572 -0.13545804 -0.014586944
-0.03204371 -0.106804915 0.03566021 -0.077423796 -0.034854632 -0.040037207 -0.09302583 -0.081426576
0.06920343 0.011000333 0.028084518 -0.0391715 -0.06629365 -0.0022025376 -0.065474056 0.003389414
0.037972726 -0.011584938 -0.048423335 -0.02277742 0.025861016 -0.04288524 0.022551225 -0.040688127
0.0055673174 -0.021618899 -0.065805025 0.01597589 -0.014633024 -0.11862358 -0.09004066 -0.04534244
-0.038963642 0.039403226 -0.0011104879 -0.03215521 0.01571446 -0.018075217 -0.007045504 -0.08638911
-0.012818758 -0.044594552 -0.058783352 0.0032170408 -0.06322766 -0.12181338 -0.051398326 -0.078352965
-0.01178162 -0.035483506 0.030252978 -0.035573848 -0.053405788 -0.017207064 -0.092276216 -0.07795028
-0.089837275 -0.16384505 -0.03575945 -0.057252273 0.004760789 0.02114207 -0.07645019 0.022422904
-0.084012434 0.0015256711 0.008246205 -0.028043842 -0.07779781 -0.03837685 0.029083673 0.023949932
0.018966744 0.040001664 -0.08366962 0.019217707 0.02151952 -0.07087019 0.0018199452 0.045106415
-0.050312847 -0.05706813 -0.03315252 -0.035666425 -0.061624933 -0.014369018 0.059404805 -0.059637763
-0.120564684 -0.067757174 -0.011380517 0.013018941 -0.02531209 -0.015373329 -0.011675989 -0.08488943
-0.02983292 0.06199202 0.0023229572 -0.0069367513 -0.038093057 -0.0931597 -0.0057061925 -0.051495917
0.020006848 0.033776894 -0.057996493 -0.039216343 0.049229983 -0.062489018 0.0032173048 -0.056465615
0.03656937 -0.03101182 -0.0065529295 -0.0036848655 -0.07384348 -0.091933936 0.022685682 0.018709416
-0.112525396 -0.058739915 -0.0778147 -0.10942412 -0.010075521 -0.043320436 -0.028682433 -0.05058718
-0.04187239 -0.06535296 -0.0039798217 -0.056564763 0.053739995 -0.09332956 -0.084524505 0.029427588
-0.06038755 -0.026962016 -0.06333909 -0.041362233 0.016041433 -0.03967919 -0.008046998 -0.013184022
0.05436963 -0.11573186 -0.027509356 -0.04544299 -0.1056026 -0.08260731 -0.078780465 -0.009399219
-0.0152376825 -0.049571905 0.035333335 -0.078022845 -0.08307897 -0.049995273 -0.050150067 -0.027981086
-0.09461728 -0.0804035 0.06571443 -0.06996232 -0.037658237 -0.07820293 0.011515648 -0.020741526
0.04227679 -0.109650925 0.049581345 0.027075294 0.028470261 -0.013858579 -0.06156861 -0.006750056
-0.05604779 0.01950165 -0.073315464 -0.041207615 0.035685576 -0.018453524 0.031658843 0.027495362
-0.06581295 -0.076779746 -0.023321714 0.012123178 0.015020919 -0.06055488 -0.011899287 -0.0395797
-0.11806762 0.008678482 0.02207066 -0.01907033 -0.04698203 -0.03466856 -0.11692136 -0.06792749
0.00042105673 -0.0012322146 0.012878158 -0.01321078 0.02635407 -0.09543785 -0.006537364 -0.014593456
-0.015582096 -0.04415876 -0.034029346 0.040084735 -0.031538635 0.03994411 -0.078349315 -0.07344087
00000000: 6120 d7bd 7a05 a0bb 71c0 8bbd 6439 8abb
00000010: ec5f 2abd d9da 55bc 9c20 adbd b0c0 a1bc
00000020: 375f 3b3d a07b aabd 32c0 e6bc 9598 4d3d
00000030: 88da a2bd 8579 a1bc 9a19 c83c 4642 c9bd
00000040: 8858 a43c 0462 54bd 2fb6 d93c 9329 603d
00000050: e3b5 673d b414 9abc d121 77bd 40c6 aabc
00000060: d1a2 9cbd fb8a 163c 27fb e83c 0fcc 97bd
00000070: 07ae 543b 3e9d 3dbd 622b 6c3b cee9 e1bd
00000080: f38c a7bc d6f3 84bc de33 e1bc 49aa 92bd
00000090: d1c2 d7bb 0cf9 24bd 83b5 0abe 14fe 6ebc
000000a0: 4440 03bd 89bc dabd 7110 123d 5e90 9ebd
000000b0: bbc3 0ebd 0efe 23bd 5484 bebd fac2 a6bd
000000c0: 87ba 8d3d be3a 343c 8111 e63c 4b72 20bd
000000d0: f7c4 87bd 7358 10bb 4317 86bd ee20 5e3b
000000e0: 4a89 1b3d c0ce 3dbc 8c57 46bd b697 babc
000000f0: 7bda d33c 6fa8 2fbd 59bd b83c 98a8 26bd
00000100: 0b6e b63b 1e1a b1bc c9c4 86bd dfdf 823c
00000110: 5abf 6fbc ebf0 f2bd 3d67 b8bd ffb8 39bd
00000120: 5798 1fbd 4765 213d ca8d 91ba 2eb5 03bd
00000130: 9cbb 803c 7a12 94bc f9dd e6bb c6ec b0bd
00000140: c505 52bc c7a8 36bd d0c6 70bd fdd4 523b
00000150: 817d 81bd 4b79 f9bd 0d87 52bd 8577 a0bd
00000160: b207 41bc 2757 11bd 18d5 f73c e2b5 11bd
00000170: 07c0 5abd d4f5 8cbc 50fb bcbd 65a4 9fbd
00000180: 9bfc b7bd ffc6 27be 8078 12bd 5c81 6abd
00000190: 6500 9c3b 2232 ad3c eb91 9cbd 3db0 b73c
000001a0: b60e acbd 07f9 c73a 171b 073c 33bc e5bc
000001b0: 7554 9fbd 0b31 1dbd e240 ee3c a632 c43c
000001c0: 2560 9b3c c9d8 233d fa5a abbd 746e 9d3c
000001d0: b449 b03c 6424 91bd 3a8b ee3a 81c1 383d
000001e0: d814 4ebd 45c0 69bd f0ca 07bd f516 12bd
000001f0: 6d6a 7cbd 086c 6bbc 7452 733d ba46 74bd
00000200: 9eea f6bd 46c4 8abd 5975 3abc 654d 553c
00000210: 4d5b cfbc 6ae0 7bbc a64c 3fbc 82da adbd
00000220: 2b64 f4bc 58eb 7d3d c13c 183b b04d e3bb
00000230: 7707 1cbd 83ca bebd 03fb babb 62ed 52bd
00000240: 67e5 a33c a459 0a3d bb8d 6dbd 51a1 20bd
00000250: 61a5 493d 7cf4 7fbd 6bd9 523b 7d48 67bd
00000260: c4c9 153d 800c febc f5b9 d6bb c97d 71bb
00000270: 403b 97bd dc47 bcbd 53d7 b93c 7d44 993c
00000280: b773 e6bd 4499 70bd 505d 9fbd c119 e0bd
00000290: cc13 25bc c570 31bd 6cf7 eabc 8134 4fbd
000002a0: 6282 2bbd c6d7 85bd 2a69 82bb 74b0 67bd
000002b0: 781e 5c3d 9123 bfbd 2f1b adbd 2012 f13c
000002c0: f058 77bd 72df dcbc edb7 81bd 726b 29bd
000002d0: 5369 833c a586 22bd 8ed7 03bc cc01 58bc
000002e0: b0b2 5e3d d304 edbd 4d5b e1bc 6e22 3abd
000002f0: 2d46 d8bd 052e a9bd a757 a1bd 2fff 19bc
00000300: 79a7 79bc e90b 4bbd b0b9 103d 71ca 9fbd
00000310: 4f25 aabd d8c7 4cbd 286a 4dbd 9738 e5bc
00000320: b4c6 c1bd 97aa a4bd 4995 863d 6848 8fbd
00000330: 863f 1abd dc28 a0bd 21ac 3c3c 22ea a9bc
00000340: 6d2a 2d3d aa90 e0bd cf15 4b3d 02cd dd3c
00000350: 773a e93c 180f 63bc 5e2f 7cbd 932f ddbb
00000360: 5e92 65bd edc1 9f3c 6b26 96bd 51c9 28bd
00000370: 0a2b 123d d82b 97bc b4ac 013d f43d e13c
00000380: f1c8 86bd b33e 9dbd 2e0d bfbc 4ba0 463c
00000390: 4d1a 763c 6508 78bd 3af5 42bc 531e 22bd
000003a0: 70cd f1bd 3130 0e3c 87cd b43c 6139 9cbc
000003b0: 3b70 40bd 9f00 0ebd 7774 efbd 911d 8bbd
000003c0: 47c1 dc39 4382 a1ba e9fe 523c 0772 58bc
000003d0: 7ee4 d73c eb74 c3bd 6237 d6bb 6419 6fbc
000003e0: 0c4c 7fbc d1df 34bd 5b62 0bbd e42f 243d
000003f0: a82e 01bd 6f9c 233d 9b75 a0bd 2b68 96bd

fc2.bias f4 [150]
-0.046858963 -0.10755806 -0.08122784 -0.09474103 -0.17478082 -0.2616791 -0.01497324 -0.16017069
-0.04488619 -0.054440428 0.21441084 -0.15169509 -0.059421506 -0.12693368 -0.11502836 -0.090571314
-0.07981267 -0.14512825 -0.10995335 -0.105228946 0.35176712 -0.076786354 -0.14303346 0.11952565
-0.100532345 0.20790106 -0.00065947504 -0.022178259 -0.10766249 -0.12363315 -0.10871796 -0.15678875
-0.18905154 -0.08498042 -0.17549959 -0.13381751 -0.16774364 -0.25835496 -0.081028156 0.025923612
-0.1907967 -0.15376867 -0.13272047 -0.2298435 0.3526797 -0.12203748 -0.26164478 -0.114763595
-0.13764478 -0.035779454 -0.15793252 -0.052817024 0.028498378 -0.14066832 -0.12164244 -0.14605111
-0.18815078 -0.124466956 0.44070542 -0.16122164 -0.07073989 -0.18685836 0.41861942 -0.16841954
-0.069886796 -0.18005338 -0.17906046 0.5281011 -0.09182601 0.4769911 -0.092913955 -0.15756415
-0.05926847 -0.16597952 -0.14452817 -0.10130516 -0.11042535 0.30961704 -0.07794383 -0.2542951
-0.06468734 -0.19226982 -0.15563509 -0.12221933 -0.21278372 0.08082516 -0.079029255 -0.12175448
0.42149943 -0.1443601 0.0653362 -0.16844378 -0.05321053 -0.106718734 0.12844513 -0.16969363
0.0025302917 -0.18033208 -0.20627338 -0.08548106 -0.33528537 -0.13557392 -0.056252215 -0.03696759
0.092683345 -0.14158794 -0.12745745 -0.058699608 -0.1269526 -0.107981056 -0.13741536 -0.32209054
-0.078396805 -0.056991145 -0.14188905 0.0038952373 -0.0585494 0.18318759 -0.22338721 0.5333605
-0.12760882 -0.14451976 -0.16115814 -0.13942076 -0.10150794 0.16975585 -0.1740079 -0.035196155
-0.12066037 -0.11688467 -0.13878125 -0.01695603 0.009836572 -0.13032408 -0.15197039 -0.03836358
-0.09389398 -0.15713009 -0.13419344 -0.07439529 -0.03210731 -0.1355712 -0.13399415 -0.13308488
-0.08537806 -0.080917604 -0.2728688 -0.088314325 -0.14465739 -0.08360326
00000000: 2fef 3fbd 6647 dcbd c85a a6bd 9607 c2bd
00000010: bef9 32be cefa 85be 5252 75bc c903 24be
00000020: 95da 37bd edfc 5ebd 848e 5b3e f555 1bbe
00000030: f763 73bd e7fa 01be fd93 ebbd 747d b9bd
00000040: d374 a3bd 809c 14be 392f e1bd 4682 d7bd
00000050: d21a b43e 2a42 9dbd 5d77 12be ddc9 f43d
00000060: e7e3 cdbd 04e4 543e 9fe0 2cba 2eaf b5bc
00000070: 277e dcbd 6033 fdbd 86a7 debd 3b8d 20be
00000080: ba96 41be 370a aebd 2ab6 33be 7507 09be
00000090: fdc4 2bbe 1a47 84be 17f2 a5bd c15d d43c
000000a0: 3660 43be 8975 1dbe e0e7 07be 185c 6bbe
000000b0: 6f92 b43e c9ee f9bd 4ef6 85be 2d09 ebbd
000000c0: c1f2 0cbe 7a8d 12bd 10b9 21be aa56 58bd
000000d0: 6e75 e93c 5b0b 10be ac1f f9bd 6c8e 15be
000000e0: 99aa 40be 88e8 febd 24a4 e13e 4917 25be
000000f0: 13e0 90bd cc57 3fbe 4955 d63e 2c76 2cbe
00000100: cf20 8fbd ea5f 38be a05b 37be a231 073f
00000110: 460f bcbd 2d38 f43e ac49 bebd 7f58 21be
00000120: 7fc3 72bd 89f6 29be 31ff 13be 1479 cfbd
00000130: b026 e2bd 2086 9e3e 04a1 9fbd f832 82be
00000140: cc7a 84bd 61e2 44be ce5e 1fbe 214e fabd
00000150: fae3 59be a987 a53d 17da a1bd 6a5a f9bd
00000160: c6ce d73e 22d3 13be fcce 853d 877c 2cbe
00000170: 49f3 59bd 5a8f dabd 1f87 033e 2bc4 2dbe
00000180: 40d3 253b f9a8 38be 5439 53be b210 afbd
00000190: 86aa abbe e4d3 0abe b968 66bd 546b 17bd
000001a0: c4d0 bd3d 6efc 10be 3584 02be 006f 70bd
000001b0: ddff 01be 2c25 ddbd 9db6 0cbe 0de9 a4be
000001c0: 818e a0bd 8c6f 69bd 5d4b 11be 3d47 7f3b
000001d0: 7fd1 6fbd 8795 3b3e 9ebf 64be 508a 083f
000001e0: e3ab 02be fdfc 13be a406 25be 51c4 0ebe
000001f0: 65e3 cfbd 7ad4 2d3e 202f 32be d829 10bd
00000200: c91c f7bd 3b61 efbd ac1c 0ebe 5fe7 8abc
00000210: 9329 213c ad73 05be 209e 1bbe 2123 1dbd
00000220: 7d4b c0bd b6e6 20be 016a 09be 8f5c 98bd
00000230: f482 03bd 2dd3 0abe c335 09be 6747 08be
00000240: b1da aebd 21b8 a5bd 76b5 8bbe 24de b4bd
00000250: 1121 14be 3038 abbd

fc3.weight f4 [1, 150]
0.01269623 0.0014827314 0.015476773 -0.0278582 0.0039450107 0.008856963 0.021101356 0.0020503232
0.0036735812 0.028845247 -0.016916899 -0.019357586 0.006506914 0.014833416 0.006007239 -0.0022611013
-0.0187537 -0.010337131 -0.0076858527 0.0095063215 0.009528628 -0.0035241814 0.0016674455 -0.014743681
-0.00096651807 -0.00879168 -0.013995423 0.01474476 -0.0097190635 0.024348516 -0.020557057 -0.0188349
0.0029763437 -0.021381058 -0.018266005 0.02265423 0.0006524518 -0.025360176 0.030619984 -0.007286143
-0.019106088 -0.01628621 -0.0075111547 0.008376866 0.0101353405 0.012717303 -0.018491741 -0.016372513
-0.0102607235 -0.020955777 0.0010826683 -0.0036438592 -0.019871766 -0.010947292 -0.013850925 -0.006001202
0.005808794 0.0020327873 0.010581448 0.008253043 0.008683757 -0.007011618 0.00811539 -0.003778423
-0.021429634 -0.0012605896 -0.009818449 0.015954101 -0.026232736 0.024029402 -0.014919511 0.0141136395
0.022631131 -0.007199682 0.011168152 -0.016069504 -0.000991661 -0.024415456 -0.012631449 -0.032217875
-0.05068053 0.006299994 -0.005169879 0.017162424 0.0064403904 0.012918433 -0.00042117914 0.0014826261
0.008294306 -0.025163315 0.008063864 -0.01977244 -0.017309925 -0.006325248 0.017052686 0.009922173
-0.014724608 -0.015217069 0.0007543897 -0.007859074 0.014901609 0.0057118856 -0.014566464 -0.01382971
-0.009160804 0.002322948 0.015345149 0.010255294 -0.018309563 0.010142335 -0.016461821 -0.020722628
0.024433242 -0.008181109 -0.011797611 -0.017151687 0.013814486 0.024320735 0.012446142 0.016025962
0.011836092 -0.009147628 -0.0061715734 -0.022356112 0.009331542 0.011591215 0.013639296 -0.011365161
-0.014974176 0.0037772502 -0.031800542 -0.01787257 -0.021558097 -0.023928529 0.0026837743 -0.010894958
0.009178303 0.04254739 0.0007778306 -0.0007921859 -0.015703682 -0.0015475578 -0.017574133 0.00697531
-0.0096559245 -0.031026438 -0.023315566 -0.031999078 -0.025197133 0.012240413
00000000: d903 503c 3658 c23a 4a92 7d3c e136 e4bc
00000010: 2645 813b cc1c 113c c0dc ac3c b75e 063b
00000020: 77c0 703b de4c ec3c 4f95 8abc cd93 9ebc
00000030: f337 d53b db07 733c 60d8 c43b fc2e 14bb
00000040: 5ca1 99bc 125d 29bc 9bd9 fbbb 67c0 1b3c
00000050: f61d 1c3c f4f5 66bb 308e da3a 7b8f 71bc
00000060: ee5d 7dba fb0a 10bc 0f4d 65bc 0194 713c
00000070: b53c 1fbc 8a76 c73c 4667 a8bc a64b 9abc
00000080: c30e 433b 5427 afbc 97a2 95bc 5d95 b93c
00000090: 4d09 2b3a 25c0 cfbc c3d6 fa3c 99c0 eebb
000000a0: 5f84 9cbc a86a 85bc 2220 f6bb 1f3f 093c
000000b0: b30e 263c 3c5c 503c fe7b 97bc a61f 86bc
000000c0: 981c 28bc 73ab abbc 52e8 8d3a d0cd 6ebb
000000d0: 1dca a2bc 455c 33bc fdee 62bc bba5 c4bb
000000e0: b257 be3b 8338 053b cf5d 2d3c c537 073c
000000f0: 5146 0e3c b7c1 e5bb 6af6 043c 6b9f 77bb
00000100: 338d afbc 5e3a a5ba 8fdd 20bc 2db2 823c
00000110: 09e6 d6bc 4fd9 c43c f770 74bc e53c 673c
00000120: ec64 b93c 4feb ebbb a0fa 363c 31a4 83bc
00000130: 9ffa 81ba ec02 c8bc 23f4 4ebc e4f6 03bd
00000140: 6396 4fbd 2e70 ce3b 1768 a9bb 3698 8c3c
00000150: e909 d33b d6a7 533c b5d1 dcb9 ad54 c23a
00000160: d7e4 073c 4c23 cebc 4c1e 043c d0f9 a1bc
00000170: 8bcd 8dbc 0744 cfbb 13b2 8b3c 9c90 223c
00000180: 7b3f 71bc 0351 79bc 3cc2 453a 58c3 00bc
00000190: e125 743c c52a bb3b 2ea8 6ebc 0296 62bc
000001a0: 3217 16bc 9a3c 183b 386a 7b3c d205 283c
000001b0: f0fd 95bc 092c 263c f1da 86bc 80c2 a9bc
000001c0: 3928 c83c 0f0a 06bc c44a 41bc b281 8cbc
000001d0: 2756 623c 473c c73c e7ea 4b3c e148 833c
000001e0: 2bec 413c efdf 15bc e93a cabb 2a24 b7bc
000001f0: 53e3 183c 14e9 3d3c 5b77 5f3c f134 3abc
00000200: 3f56 75bc be8b 773b 4941 02bd 7f69 92bc
00000210: 9b9a b0bc c305 c4bc 43e2 2f3b c480 32bc
00000220: 9860 163c 2c46 2e3d 54e7 4b3a b2aa 4fba
00000230: 02a5 80bc 6cd7 caba a1f7 8fbc 2491 e43b
00000240: e233 1ebc 282b febc 4900 bfbc 7711 03bd
00000250: 386a cebc 038c 483c
