agent2_checkpoint_actor.pth (torch_old, 142815 bytes, 6 tensors)

fc1.weight f4 [200, 24]
0.0534405 0.08482522 -0.029541194 -0.089043505 0.025724595 -0.2551342 0.009791942 -0.087315716
0.07094616 0.035832673 0.029078422 0.01831995 0.12086283 -0.39303273 0.042762324 -0.03230872
0.029377047 -0.03964125 0.06979674 -0.1170259 0.06106536 -0.3339882 0.06534643 -0.09631607
-0.005729836 -0.10612805 0.004052967 -0.007600869 0.17360017 -0.060703818 0.020494211 0.07053388
-0.003619657 -0.0602276 0.045603108 0.05953475 -0.009293783 -0.15877022 -0.037666425 -0.0058376826
-0.03130439 -0.057808053 -0.008945778 0.01837048 -0.2510216 -0.09158038 -0.031558238 0.019618198
-0.0012423372 8.092207e-05 -0.031656507 0.00885865 -0.013142235 0.07010111 0.028563334 -0.091643445
-0.10118556 -0.02979143 0.031173235 0.008646634 -0.15485501 -0.12399249 -0.034536526 0.009735465
-0.02820263 -0.047074202 -0.012805994 -0.008982289 -0.23454703 -0.2515873 -0.022723496 0.08004357
-0.022583207 0.096453026 0.021244947 -0.02720113 0.22709315 -0.021282507 -0.04563956 0.05628224
-0.010119961 0.055742733 -0.012194102 -0.048073024 0.01389009 -0.030328372 -0.034237936 -0.0017937156
-0.037955556 0.013206244 -0.08722693 0.03243554 -0.25668576 -0.0041022203 -0.09898778 -0.008466531
0.013991282 0.008307799 0.020889333 0.007882822 -0.01758616 -0.044611666 -0.042944785 -0.10710098
-0.04494621 0.07070416 -0.0044353236 -0.12819861 -0.08771933 -0.117033415 0.010413266 -0.10136689
0.032293763 -0.022916388 -0.05763208 -0.006601105 -0.27696767 -0.22187524 0.044296317 -0.04036995
-0.025779195 -0.031871114 0.04233269 -0.045725312 0.13684429 0.057085842 0.06389593 0.035679627
0.042083703 -0.07782843 -0.042036112 -0.0056522456 -0.052054666 0.07257826 0.040224552 0.0006512434
-0.04430963 -0.098708816 -0.013413522 -0.038777202 -0.17151551 0.24927317 0.0137659805 -0.059293892
-0.0333577 -0.056352876 0.043455843 -0.03923905 -0.16753414 0.0035706405 -0.0027814172 -0.06581642
-0.046272285 -0.072099015 -0.040503073 0.048728384 0.0017928106 0.08244128 0.017420474 -0.028660364
0.030798022 -0.11298388 -0.02937992 0.09655038 0.19887416 0.27096742 0.002508778 0.036843948
-0.01066964 0.058323767 -0.034015976 -0.0081314435 0.094505854 -0.021790955 -0.01603332 -0.02360364
-0.098076805 0.003830507 -0.10803575 0.043562327 0.17004265 -0.068866186 0.0028849866 0.04340591
0.03059355 0.1084197 -0.05245055 0.12401142 0.21797574 -0.035466712 -0.018173058 0.09846388
0.13526191 -0.023262687 -0.06465902 0.06800746 0.27348787 -0.019892631 0.028935935 0.072773725
0.13769707 0.024756867 -0.03306806 -0.025115045 0.2067881 -0.03528203 -0.0694663 0.08098611
-0.02755793 -0.03743705 -0.07000325 0.11694081 0.085772745 0.02377191 -0.05329683 0.01693031
-0.020622067 0.10581645 -0.047505338 0.060719073 -0.25495192 0.047489546 0.014393732 -0.026872205
0.023319578 0.1379836 0.03342107 -0.08364738 -0.01829151 -0.029973136 -0.040533863 0.048396748
0.037590764 0.11958775 -0.051946614 -0.09293482 0.14427923 0.058526624 -0.07840273 -0.0851413
-0.05686483 -0.057845037 -0.009013099 -0.061692957 0.16482179 -0.0386705 0.00578104 -0.0664042
-0.043826114 -0.0039603366 0.00048669154 -0.061686706 -0.0070829107 0.056643132 0.04906094 -0.04375116
00000000: 6de4 5a3d d8b8 ad3d 6000 f2bc 715c b6bd
00000010: 63bc d23c f3a0 82be 626e 203c 95d2 b2bd
00000020: 384c 913d 48c5 123d df35 ee3c b813 963c
00000030: ee86 f73d 963b c9be 8c27 2f3d 2656 04bd
00000040: 22a8 f03c dd5e 22bd 98f1 8e3d 46ab efbd
00000050: ac1f 7a3d 8000 abbe 59d4 853d 5c41 c5bd
00000060: 59c1 bbbb aa59 d9bd c0ce 843b b610 f9bb
00000070: 3ec4 313e 91a4 78bd 7ae3 a73c 1174 903d
00000080: c437 6dbb 37b1 76bd 53ca 3a3d b6da 733d
00000090: f444 18bc a994 22be 1c48 1abd 084a bfbb
000000a0: 0839 00bd 23c8 6cbd 5091 12bc b07d 963c
000000b0: e785 80be 7f8e bbbd 3643 01bd 58b6 a03c
000000c0: ebd5 a2ba b5b4 a938 41aa 01bd df23 113c
000000d0: 8752 57bc 2c91 8f3d a7fd e93c 8faf bbbd
000000e0: 603a cfbd 280d f4bc 035f ff3c 9daa 0d3c
000000f0: 5092 1ebe c6ef fdbd 2c76 0dbd 8081 1f3c
00000100: 3409 e7bc e1d0 40bd 3bd0 51bc 732a 13bc
00000110: 192d 70be 0dd0 80be a026 babc e2ed a33d
00000120: 6b00 b9bc 2a89 c53d e209 ae3c e7d4 debc
00000130: 1b8b 683e a758 aebc 8cf0 3abd 3588 663d
00000140: 31ce 25bc 7e52 643d c5c9 47bc 38e8 44bd
00000150: 4393 633c 3573 f8bc 143d 0cbd 1c1b ebba
00000160: 4977 1bbd 015f 583c 08a4 b2bd 21db 043d
00000170: 516c 83be eb6b 86bb 1bba cabd 34b7 0abc
00000180: b13b 653c 6f1d 083c 1b20 ab3c f426 013c
00000190: da10 90bc b9ba 36bd dfe6 2fbd c257 dbbd
000001a0: 8419 38bd 58cd 903d 3156 91bb 7f46 03be
000001b0: 31a6 b3bd 37af efbd 679c 2a3c 7299 cfbd
000001c0: 7746 043d 26bb bbbc 9e0f 6cbd 154e d8bb
000001d0: b5ce 8dbe 4333 63be 0e70 353d f65a 25bd
000001e0: e42e d3bc 498b 02bd 0b65 2d3d 774a 3bbd
000001f0: e920 0c3e d8d2 693d dfdb 823d cd24 123d
00000200: f65f 2c3d 8364 9fbd 0f2e 2cbd 7936 b9bb
00000210: 4637 55bd e9a3 943d 80c2 243d 34b8 2a3a
00000220: 047e 35bd d927 cabd 64c4 5bbc d8d4 1ebd
00000230: c3a1 2fbe 7741 7f3e b58a 613c 27de 72bd
00000240: 15a2 08bd 46d2 66bd c1fe 313d 20b9 20bd
00000250: 128e 2bbe 6801 6a3b 7048 36bb c2ca 86bd
00000260: 0288 3dbd a6a8 93bd 8de6 25bd 6a97 473d
00000270: befc ea3a f9d6 a83d 62b5 8e3c 24c9 eabc
00000280: 224c fc3c 1864 e7bd 28ae f0bc 35bc c53d
00000290: aba5 4b3e 3ebc 8a3e 4f6a 243b aee9 163d
000002a0: b7cf 2ebc e7e4 6e3d 5654 0bbd bf39 05bc
000002b0: 498c c13d f282 b2bc 4f58 83bc 6c5c c1bc
000002c0: 7edc c8bd 3e09 7b3b d941 ddbd 696e 323d
000002d0: a91f 2e3e b709 8dbd 0b12 3d3b 65ca 313d
000002e0: 539f fa3c 260b de3d 63d6 56bd b3f9 fd3d
000002f0: 0835 5f3e 8b45 11bd aadf 94bc 6ea7 c93d
00000300: 1982 0a3e 6491 bebc f36b 84bd 7f47 8b3d
00000310: 9a06 8c3e dff5 a2bc 0e0b ed3c 640a 953d
00000320: 7600 0d3e eace ca3c 6072 07bd 11be cdbc
00000330: 42c0 533e e483 10bd 5944 8ebd 0cdc a53d
00000340: 2bc1 e1bc 9857 19bd dd5d 8fbd aa7e ef3d
00000350: 9fa9 af3d 4fbd c23c c74d 5abd 6fb1 8a3c
00000360: 9cef a8bc 4cb6 d83d f594 42bd 90b4 783d
00000370: 0f89 82be 6684 423d b0d3 6b3c 1923 dcbc
00000380: b308 bf3c 934b 0d3e 88e4 083d 514f abbd
00000390: 14d8 95bc 398a f5bc d606 26bd ab3b 463d
000003a0: c6f8 193d 6cea f43d f9c5 54bd 9c54 bebd
000003b0: efbd 133e 9db9 6f3d 9c91 a0bd 905e aebd
000003c0: 19eb 68bd ebee 6cbd adab 13bc c1b1 7cbd
000003d0: 0bc7 283e f564 1ebd e16e bd3b edfe 87bd
000003e0: 0383 33bd b6c5 81bb a22a ff39 33ab 7cbd
000003f0: c317 e8bb a102 683d 20f4 483d 6b34 33bd

fc1.bias f4 [200]
0.093334936 0.07433274 0.12842049 -0.1608751 0.02854834 -0.012308311 0.084115945 -0.21393628
-0.09480474 0.2162014 0.10874598 0.15178372 -0.19700785 -0.21038863 -0.15033813 0.17255613
-0.103083946 -0.03637597 0.024447264 0.22736792 0.19922626 0.13779059 0.14997008 0.18759015
-0.089541 -0.06625715 0.13222963 -0.17945223 0.08296373 -0.16856961 -0.06738502 -0.11135629
0.0055405754 -0.037384875 0.1948103 0.23007731 -0.21166629 0.17755258 -0.029956767 -0.07959146
-0.057037584 -0.096269324 -0.12167971 -0.0052263658 0.048796806 -0.050856262 0.03343143 -0.21114753
0.053519033 0.23503454 -0.04255956 -0.035109203 -0.08880512 -0.14627385 -0.14512186 -0.21486683
0.067201115 -0.11061666 0.046406597 0.07873045 0.20385584 -0.12065996 0.24379681 -0.036716636
-0.20968777 -0.06104505 -0.16699326 0.06899772 0.24906228 -0.07515078 0.02045474 0.1656055
0.0790827 0.20581539 -0.05540322 0.11723812 0.010592554 0.08344637 0.066218995 0.04278882
-0.049997933 0.10259711 0.13440134 0.012183149 0.19816794 0.17649192 0.18070658 -0.024115928
-0.14589658 0.014205419 -0.17894037 -0.12797439 0.11553874 0.044511728 0.13050926 -0.2086929
0.058340352 0.06966658 -0.14264503 -0.1404905 -0.020485837 0.25712207 0.08441824 -0.037256286
-0.20167701 -0.12830038 -0.11376373 -0.09175561 -0.17494354 -0.06303989 -0.18170609 0.14178264
-0.06589287 0.0904295 -0.173452 -0.08404913 0.0032809605 -0.008449272 0.14479594 0.17061155
-0.06516654 -0.009041653 -0.019732157 0.12645973 -0.11160984 0.027270101 -0.058659855 -0.09177852
0.15697399 -0.1033761 -0.14999048 -0.15637249 -0.09706915 0.17454015 -0.20335402 0.17623341
0.16082712 0.12303012 0.22967944 0.07445578 0.024908759 -0.019696811 0.03675374 -0.014455785
0.12694742 -0.08094448 0.20165853 -0.17602192 0.22127493 0.026226796 0.063083015 -0.06977748
-0.0059860894 0.032887187 0.17588574 0.15104103 -0.034972057 -0.20655629 0.013242928 -0.0014347314
-0.030415403 0.014998005 -0.12659673 -0.24775669 0.07485708 0.08948041 -0.1582024 0.06565587
0.07314064 -0.15957767 0.15956055 -0.107212044 -0.017622603 -0.117514424 0.09637705 -0.06035247
-0.042355582 0.08983156 -0.043372408 0.17824054 0.043469865 0.10302977 -0.11057913 0.21337079
0.035166204 -0.18294139 0.16805981 0.068961374 0.24721706 0.102048 0.19692066 -0.14585909
0.1101379 0.13616171 -0.14559247 0.23629215 0.048844732 -0.008663058 0.0996329 0.16323455
00000000: 6326 bf3d c33b 983d a980 033e 71bc 24be
00000010: 35de e93c cca8 49bc fb44 ac3d 1d12 5bbe
00000020: fd28 c2bd e663 5d3e 36b6 de3d 316d 1b3e
00000030: 6dbc 49be 1e70 57be 3df2 19be 8eb2 303e
00000040: ad1d d3bd f8fe 14bd a145 c83c 23d3 683e
00000050: f801 4c3e fa18 0d3e c291 193e a217 403e
00000060: 4661 b7bd d4b1 87bd 3467 073e 53c2 37be
00000070: e3e8 a93d 839d 2cbe 2801 8abd c40e e4bd
00000080: b78d b53b e220 19bd 5a7c 473e 6399 6b3e
00000090: 0cbf 58be 58d0 353e e567 f5bc d900 a3bd
000000a0: 3ea0 69bd da28 c5bd 3633 f9bd ef41 abbb
000000b0: 29df 473d a84e 50bd 65ef 083d 0f37 58be
000000c0: c636 5b3d e5ac 703e ef52 2ebd abce 0fbd
000000d0: 75df b5bd d0c8 15be d39a 14be 0d06 5cbe
000000e0: bda0 893d fd8a e2bd d814 3e3d 6e3d a13d
000000f0: 96bf 503e 921c f7bd dfa5 793e 2f64 16bd
00000100: 64b8 56be 600a 7abd 4800 2bbe ad4e 8d3d
00000110: 2f0a 7f3e a7e8 99bd b390 a73c 7d94 293e
00000120: 1cf6 a13d 45c1 523e 7dee 62bd 8a1a f03d
00000130: 648c 2d3c eee5 aa3d d39d 873d 5443 2f3d
00000140: a2ca 4cbd 6f1e d23d 81a0 093e d59b 473c
00000150: 89ec 4a3e 4cba 343e 250b 393e c48e c5bc
00000160: ea65 15be d9bd 683c 253c 37be b80b 03be
00000170: 939f ec3d ee51 363d 38a4 053e 97b3 55be
00000180: 4bf6 6e3d 5aad 8e3d 8a11 12be bedc 0fbe
00000190: ead1 a7bc 81a5 833e 78e3 ac3d 0c9a 18bd
000001a0: 6b84 4ebe 2d61 03be f5fc e8bd 5eea bbbd
000001b0: 6624 33be 0f1b 81bd 2911 3abe 782f 113e
000001c0: d7f2 86bd 1a33 b93d 679d 31be f321 acbd
000001d0: 6205 573b d16e 0abc 6345 143e cbb4 2e3e
000001e0: 0976 85bd 7123 14bc 55a5 a1bc a97e 013e
000001f0: b393 e4bd 8c65 df3c 5145 70bd 60f6 bbbd
00000200: cabd 203e d9b6 d3bd 1b97 19be 1c20 20be
00000210: 31cc c6bd a7ba 323e 093c 50be 8876 343e
00000220: ddaf 243e 37f7 fb3d 1631 6b3e 467c 983d
00000230: 740d cc3c 355b a1bc 178b 163d f5d7 6cbc
00000240: 81fe 013e 38c6 a5bd 937f 4e3e 173f 34be
00000250: e595 623e 94d9 d63c ab31 813d 7fe7 8ebd
00000260: f526 c4bb b7b4 063d 641b 343e 80aa 1a3e
00000270: dc3e 0fbd 7e83 53be def8 583c 990d bcba
00000280: b929 f9bc 31ba 753c 93a2 01be eeb3 7dbe
00000290: ab4e 993d 8141 b73d cfff 21be 9676 863d
000002a0: c3ca 953d 5468 23be d763 233e fd91 dbbd
000002b0: 475d 90bc 67ab f0bd 5561 c53d 2734 77bd
000002c0: 0c7d 2dbd 9cf9 b73d 44a7 31bd b084 363e
000002d0: 750d 323d 4601 d33d 5077 e2bd df7d 5a3e
000002e0: 700a 103d fd54 3bbe df17 2c3e 9f3b 8d3d
000002f0: 7826 7d3e 8bfe d03d 92a5 493e 165c 15be
00000300: fb8f e13d fa6d 0b3e 3116 15be 92f6 713e
00000310: 6a11 483d 80ef 0dbc 550c cc3d f526 273e

fc2.weight f4 [150, 200]
-0.0611155 -0.014288429 -0.04480589 -0.025237119 -0.018554918 0.08770441 0.001969836 0.009709956
-0.14750794 -0.097086474 0.0040809293 0.09041354 -0.122786045 0.09400354 -0.03674696 -0.17870425
0.17562394 0.06380011 -0.050757937 0.042402167 -0.07088582 -0.08027302 -0.013214495 0.05747417
-0.12470549 -0.039844714 0.06810301 0.055154964 -0.003877672 0.025626024 -0.02451101 -0.0032229607
0.0588839 -0.2616406 0.073155 -0.08101525 -0.015788916 -0.0036307692 0.116379015 0.07331472
0.06370528 0.042135127 0.081088156 0.10444694 0.053143825 -0.063904524 -0.10452129 -0.083861165
-0.03301072 -0.210324 -0.02955699 -0.019907981 0.039922282 -0.09531209 -0.05445628 0.07483916
0.09485353 0.10253451 -0.010272737 -0.01826756 0.1007147 0.0073579685 -0.07739897 -0.06722681
0.123162426 0.10481127 0.10263185 -0.0403995 -0.17459944 0.09115697 0.08837164 0.07632901
-0.0036490846 0.06977928 -0.1074213 0.17634517 0.03520785 -0.20973438 -0.04442757 0.012056222
0.05753323 -0.09337547 -0.014328076 0.07025496 -0.014174468 0.031674232 -0.012054192 -0.019853009
-0.010987163 0.008553924 0.04109636 -0.088540696 0.036573548 -0.024118481 -0.12231871 0.0039908104
0.03722865 -0.13355541 0.058906328 -0.09579487 0.028315192 -0.069427446 0.0008792466 0.045196913
0.08036834 0.004573138 0.053396814 -0.00034550222 0.033388656 -0.10123761 0.13156329 -0.16002081
0.04874074 -0.0066323397 -0.05769984 0.07128423 -0.030295685 0.032287754 -0.029127913 -0.27743194
-0.07529926 0.040816724 0.08447679 0.046282344 -0.15216981 0.0559085 -0.020073036 0.005720418
0.084272094 0.011006323 0.12524168 0.040739026 -0.085815154 0.02919543 -0.07912862 -0.009977182
0.08436516 -0.09229723 -0.05220861 0.008139597 0.19722593 0.0153371375 -0.061622735 -0.013995846
0.0070609557 0.046180237 0.021085022 0.09007303 0.11900933 0.012779648 -0.16352747 -0.12126363
0.111365624 -0.0053588063 -0.019962873 0.035066362 -0.13653941 0.12655176 0.00089798495 0.03665897
-0.09501157 -0.02001409 0.070246 0.092880145 -0.010030813 -0.012194033 0.076026656 0.0140573215
-0.04080452 -0.07832835 0.020270605 -0.13138817 -0.005710833 -0.0041683945 0.034879483 -0.0061109164
0.064680204 0.054425143 0.03672611 0.04738095 -0.14046547 0.019024026 0.046699256 0.053260222
0.052321117 0.13185972 -0.18386726 -0.12859975 -0.22510894 0.029646799 -0.06471648 -0.0015840005
0.023179853 0.006341288 0.07320054 -0.06430003 -0.14335454 -0.0626636 0.08838534 0.011721557
0.051755145 0.08452273 -0.07490916 0.08565897 0.069293864 0.040034063 -0.06418664 -0.057803556
-0.13689177 -0.1367357 0.009013427 0.063290186 0.117069975 0.13844062 0.020841839 0.0007294152
0.16129744 -0.001796007 0.03760495 -0.03529004 0.02531897 -0.021166755 -0.06733941 0.025766248
-0.021166248 0.032165747 -0.026389632 -0.10182866 -0.09715115 -0.05408401 -0.0013729947 0.020859499
0.04063433 -0.07384843 -0.021548005 0.039987806 0.011554253 -0.052096765 0.15265563 0.038012583
0.084038 -0.1617875 0.109503195 0.03150194 0.116344556 0.069801375 -0.04219999 -0.016577585
0.030350177 0.017850189 -0.07792354 -0.06365278 -0.04968863 0.036281556 0.015508096 -0.004894601
00000000: 3f54 7abd 041a 6abc 6286 37bd 13be cebc
00000010: 7c00 98bc 5f9e b33d 5d18 013b 8216 1f3c
00000020: 520c 17be 46d5 c6bd 51b9 853b bc2a b93d
00000030: 4077 fbbd ee84 c03d fb83 16bd 3ffe 36be
00000040: c3d6 333e a2a9 823d 8ee7 4fbd e5ad 2d3d
00000050: 962c 91bd 2e66 a4bd 9c81 58bc 096a 6b3d
00000060: 9865 ffbd 3634 23bd 9779 8b3d 2cea 613d
00000070: 8a20 7ebb abed d13c 50cb c8bc 4f38 53bb
00000080: 3f30 713d c2f5 85be 4ad2 953d 53eb a5bd
00000090: c257 81bc 33f2 6dbb 1f58 ee3d 0726 963d
000000a0: ea77 823d e295 2c3d 8c11 a63d 47e8 d53d
000000b0: 57ad 593d 60e0 82bd 420f d6bd 67bf abbd
000000c0: 4036 07bd 2d5f 57be 8021 f2bc 1016 a3bc
000000d0: 8c85 233d fc32 c3bd 8c0d 5fbd 4645 993d
000000e0: 9142 c23d 9dfd d13d fb4e 28bc daa5 95bc
000000f0: 8243 ce3d 1d1b f13b 5a83 9ebd 36ae 89bd
00000100: 953c fc3d 4ba7 d63d a630 d23d f279 25bd
00000110: 32ca 32be 81b0 ba3d 31fc b43d 6252 9c3d
00000120: 7b25 6fbb 70e8 8e3d b3ff dbbd d493 343e
00000130: 1b36 103d 9cc4 56be aff9 35bd 7687 453c
00000140: f7a7 6b3d a33b bfbd 4ec0 6abc d5e1 8f3d
00000150: 073c 68bc d7bc 013d f27e 45bc c7a2 a2bc
00000160: 8003 34bc c225 0c3c a854 283d d354 b5bd
00000170: 25ce 153d 1f94 c5bc 3b82 fabd 58c5 823b
00000180: 127d 183d c0c2 08be c347 713d 1a30 c4bd
00000190: 43f5 e73c fa2f 8ebd 3e7d 663a 6620 393d
000001a0: 2898 a43d 43da 953b 9eb6 5a3d 8624 b5b9
000001b0: 8bc2 083d aa55 cfbd 87b8 063e 7fdc 23be
000001c0: 5fa4 473d 1954 d9bb ab56 6cbd 77fd 913d
000001d0: a82e f8bc 2a40 043d a99d eebc 8f0b 8ebe
000001e0: 8036 9abd 702f 273d 2b02 ad3d 8e92 3d3d
000001f0: 67d2 1bbe 5000 653d 3570 a4bc 5872 bb3b
00000200: d996 ac3d dd53 343c 5b3f 003e f7dd 263d
00000210: dbbf afbd 412b ef3c 300e a2bd 5677 23bc
00000220: a4c7 ac3d 5506 bdbd b2d8 55bd f25b 053c
00000230: 98f5 493e 9e48 7b3c 1f68 7cbd d54e 65bc
00000240: 975f e73b 7d27 3d3d 7fba ac3c 3578 b83d
00000250: 2abb f33d bb61 513c bf73 27be 1159 f8bd
00000260: a913 e43d ed98 afbb 2e89 a3bc bfa1 0f3d
00000270: fdd0 0bbe c996 013e c066 6b3a b727 163d
00000280: 6d95 c2bd 97f4 a3bc 23dd 8f3d f237 be3d
00000290: 4758 24bc 7bc9 47bc ddb3 9b3d ae50 663c
000002a0: a422 27bd 9d6a a0bd 8a0e a63c 9f8a 06be
000002b0: f021 bbbb 0797 88bb cadd 0e3d 153e c8bb
000002c0: 0e77 843d e6ec 5e3d 1e6e 163d 8712 423d
000002d0: 2ed6 0fbe 46d8 9b3c b847 3f3d 6427 5a3d
000002e0: ab4e 563d 3c06 073e b347 3cbe a7af 03be
000002f0: f582 66be d8dd f23c 138a 84bd 3d9e cfba
00000300: ade3 bd3c 94ca cf3b 2aea 953d bcaf 83bd
00000310: 88cb 12be c655 80bd 6003 b53d c60b 403c
00000320: 34fd 533d 411a ad3d f969 99bd f86d af3d
00000330: f1e9 8d3d c2fa 233d 4974 83bd 6cc3 6cbd
00000340: 5b2d 0cbe 7104 0cbe 0ead 133c 499e 813d
00000350: 62c2 ef3d 61c3 0d3e 81bc aa3c 3a36 3f3a
00000360: 282b 253e ff67 ebba a607 1a3d 4a8c 10bd
00000370: bb69 cf3c e765 adbc 3fe9 89bd bd13 d33c
00000380: d764 adbc 3bc0 033d 122f d8bc 8b8b d0bd
00000390: 2ff7 c6bd 3287 5dbd 0ff6 b3ba 8ae1 aa3c
000003a0: 2f70 263d d83d 97bd 7185 b0bc 41ca 233d
000003b0: 0d4e 3d3c 6b63 55bd c251 1c3e 15b3 1b3d
000003c0: 1d1c ac3d 9fab 25be 3643 e03d 2e08 013d
000003d0: 0e46 ee3d 06f4 8e3d e6d9 2cbd b7cd 87bc
000003e0: efa0 f83c 8f3a 923c 6096 9fbd 645c 82bd
000003f0: 4e86 4bbd f89b 143d ab15 7e3c e462 a0bb

fc2.bias f4 [150]
-0.04331502 0.050138135 0.07560844 -0.14482324 -0.0027944334 0.0217629 0.109877475 0.03752646
-0.027110782 -0.09038 -0.008618357 -0.023830421 0.08288921 0.10602389 0.06353502 0.09483661
0.058674246 0.01772275 -0.04969265 -0.02998088 -0.016790481 -0.05218158 0.02072031 -0.022942204
-0.05514414 0.05852696 0.14375834 -0.047179583 0.01478802 -0.084971964 0.06477729 0.043497376
0.070716776 -0.0056690876 0.009048609 0.024468023 0.06037746 0.06630799 0.009696363 0.096577995
0.0020196864 -0.0553068 -0.038345866 -0.13406342 -0.036655184 0.06655257 -0.01454849 -0.00091044063
-0.10556244 -0.009414574 0.053196464 -0.023280567 -0.025037676 -0.07228874 0.063611045 -0.04863527
-0.023763312 -0.054755423 0.02034474 0.10255149 -0.012021981 -0.011740306 0.027995547 -0.025039617
0.0320305 0.059471596 0.07522597 0.055451404 0.025885127 -0.042986393 -0.03641662 -0.008993215
-0.09371551 -0.016087763 0.01177608 -0.058828358 0.17905234 -0.009217927 0.032655 -0.064597264
-0.029880272 0.08461431 -0.12485996 0.11028125 0.0328487 0.062383235 -0.0025825754 -0.097751334
0.0129630575 0.109403275 -0.023348726 -0.104792416 -0.082375936 -0.08887039 -0.040448196 0.028194033
-0.11549654 -0.056682505 0.029200755 0.010635125 0.11001579 -0.082368016 -0.072750166 -0.02977959
0.021914734 -0.089819945 0.064373456 0.03204212 -0.07650632 0.0041492144 -0.05682135 0.018132031
-0.055272747 -0.06527425 0.057133257 0.00683604 0.0153421005 -0.0867396 0.04688942 -0.02139735
-0.012028584 0.008867832 -0.07077198 -0.050155442 0.009652459 0.060245335 0.08691285 0.033959314
0.09599811 -0.055029858 -0.01972505 -0.068922125 -0.008256236 0.08131645 0.045612734 -0.020865079
0.058910474 0.051378816 -0.052117594 0.039581396 0.11813634 -0.09275652 0.045451578 0.026051816
-0.024649002 -0.0022991074 -0.01960211 -0.026314555 -0.013857614 -0.1446907
00000000: 176b 31bd a55d 4d3d 99d8 9a3d 8b4c 14be
00000010: d022 37bb 1c48 b23c 7107 e13d 58b5 193d
00000020: 6e17 debc 2619 b9bd 0234 0dbc 0438 c3bc
00000030: d1c1 a93d 0e23 d93d a61e 823d b239 c23d
00000040: 6854 703d 4d2f 913c 858a 4bbd 769a f5bc
00000050: 318c 89bc 5abc 55bd a4bd a93c 4af1 bbbc
00000060: d2de 61bd f7b9 6f3d 6335 133e 613f 41bd
00000070: 7449 723c c805 aebd f5a9 843d 4e2a 323d
00000080: f5d3 903d c1c3 b9bb 9e40 143c 2a71 c83c
00000090: 5b4e 773d 7ccc 873d 7edd 1e3c afca c53d
000000a0: b75c 043b 6289 62bd 8e10 1dbd ec47 09be
000000b0: bf23 16bd b74c 883d ca5c 6ebc a3aa 6eba
000000c0: 1f31 d8bd 963f 1abc 89e4 593d e3b6 bebc
000000d0: d01b cdbc 1e0c 94bd 8246 823d c735 47bd
000000e0: 47ab c2bc 3947 60bd 03aa a63c 8406 d23d
000000f0: d8f7 44bc 6a5a 40bc eb56 e53c e21f cdbc
00000100: 6a32 033d 7d98 733d 1310 9a3d 0321 633d
00000110: 0c0d d43c 8012 30bd 9829 15bd 4758 13bc
00000120: ebed bfbd 7cca 83bc 76f0 403c 01f6 70bd
00000130: 7f59 373e ca06 17bc 40c1 053d 924b 84bd
00000140: 79c7 f4bc 444a ad3d 94b6 ffbd 23db e13d
00000150: 5c8c 063d 9085 7f3d 6d40 29bb da31 c8bd
00000160: 0163 543c d30e e03d d445 bfbc 689d d6bd
00000170: b7b4 a8bd ae01 b6bd 02ad 25bd 2cf7 e63c
00000180: 7389 ecbd ea2b 68bd 6c36 ef3c f33e 2e3c
00000190: f54f e13d 90b0 a8bd 0afe 94bd 54f4 f3bc
000001a0: 8786 b33c 85f3 b7bd 3bd6 833d 993e 033d
000001b0: 58af 9cbd 22f6 873b 81bd 68bd a089 943c
000001c0: ad65 62bd 82ae 85bd 9004 6a3d dc00 e03b
000001d0: 6f5d 7b3c 88a4 b1bd 1f0f 403d 7f49 afbc
000001e0: 8a13 45bc 624a 113c e6f0 90bd cb6f 4dbd
000001f0: 5925 1e3c d0c3 763d 5dff b13d ec18 0b3d
00000200: a89a c43d fd66 61bd 6e96 a1bc 0b27 8dbd
00000210: 2a45 07bc 3d89 a63d 6bd4 3a3d 3eed aabc
00000220: 1c4c 713d 9872 523d 4279 55bd 1a20 223d
00000230: 77f1 f13d 21f7 bdbd 6f2b 3a3d 9e6a d53c
00000240: b4ec c9bc 9fac 16bb 9b94 a0bc 9f91 d7bc
00000250: 0c0b 63bc cd29 14be

fc3.weight f4 [2, 150]
-0.083860785 -0.034904722 0.121123984 -0.15971538 0.2203373 0.040351246 0.017582037 0.12946479
-0.02522861 -0.09221416 0.010080651 -0.07356497 0.03561382 0.052379135 0.05272988 0.07643207
-0.075116046 0.021814233 0.045144662 -0.040717266 -0.17680056 -0.092158556 -0.06916691 0.031982508
0.05603636 -0.12756112 0.012526797 -0.022279974 0.08593162 -0.07721802 -0.15294789 0.09957844
0.071700834 -0.026236538 -0.09829558 0.067302786 0.066002525 -0.2717616 0.05401695 -0.13664724
0.080459565 -0.002313299 -0.034316406 -0.22911158 0.0054981243 0.04287946 -0.04693615 0.18910319
0.03578174 0.06316466 -0.03875309 -0.012169242 -0.20795704 -0.06369583 0.019889487 0.010500842
-0.085403115 -0.0699017 0.02341716 0.058703218 0.09147161 -0.112763554 -0.009578638 -0.06586703
0.033928424 0.15556124 0.09969181 0.013533726 -0.18271784 -0.087360606 0.062016577 -0.051907107
-0.064732894 0.023896169 0.028412025 0.110102996 0.006638843 -0.016471587 -0.109464616 -0.121778935
-0.09455922 -0.11256796 -0.060158756 -0.07498578 -0.048086066 -0.28185722 0.07246601 -0.122102454
0.049448617 -0.13960315 0.06340926 0.010321701 -0.02350801 0.047670145 0.024443079 -0.029249439
0.027783075 0.097909525 0.014772372 0.060076702 0.05288897 0.011093103 -0.12325677 0.017484168
-0.051473375 -0.08638145 0.051546764 -0.091259755 -0.089364715 -0.02286518 -0.0071280813 0.09711323
-0.08645464 0.091072835 0.07305764 -0.13464172 0.025892487 -0.072080545 0.022258673 -0.040703084
-0.045375247 0.043867964 -0.066302106 0.060007904 -0.27709687 0.066672005 -0.17032044 0.038679685
0.022583826 -0.09564413 0.035825014 0.08908957 0.032111797 -0.1629923 0.06897724 0.05582941
-0.33640298 -0.091313764 -0.08409035 0.0009309961 -0.116828874 -0.08094498 0.024924839 0.18647687
-0.07790267 -0.08712083 -0.27493873 -0.042752333 -0.025125619 0.009890514 0.12146965 -0.0204514
-0.18141897 0.24629535 0.07148708 -0.0018357718 -0.07971821 0.02797594 -0.06117926 0.112888634
0.30818945 -0.364694 -0.045930967 -0.043961678 -0.11743203 0.10908798 -0.10938812 0.37982276
0.16666213 -0.0885019 0.040158357 0.11055791 -0.1533162 0.008764269 0.2617596 -0.098564945
-0.17777595 0.21002032 0.01012472 0.28584626 -0.19217944 0.13886963 0.014507526 -0.039292797
-0.025185242 0.01062654 0.06875103 0.08853521 -0.018712008 -0.22119802 0.074019484 -0.034618028
0.15088463 0.1787302 -0.00819502 -0.04339716 -0.018781874 0.04862135 0.45268652 -0.013668991
-0.04988481 -0.33604392 -0.07567708 0.15368442 -0.21371567 0.12833935 0.047214374 0.025930982
0.16707069 0.036564976 -0.019751765 -0.08743721 0.36450478 0.23558846 -0.022964187 -0.1884921
-0.20656557 0.21654646 -0.11261015 -0.08697051 0.009069656 -0.058542617 0.3119245 -0.08915317
-0.07991888 0.013945372 -0.13967235 -0.12758751 -0.07592382 0.17580725 -0.039295316 -0.13293363
0.05851758 -0.17270903 -0.06361439 0.03324722 0.14886807 0.20178412 0.026370987 -0.19601652
0.12280978 0.1582046 0.12744704 0.15648967 -0.040037263 -0.057106458 0.119771376 0.18097892
0.036512706 0.10314555 0.23337032 0.03459949 0.019841535 0.016426556 -0.029344263 -0.017502563
00000000: 34bf abbd 41f8 0ebd da0f f83d 6e8c 23be
00000010: 1aa0 613e 5947 253d 3408 903c 6b92 043e
00000020: 3bac cebc c7da bcbd 5129 253c 3ba9 96bd
00000030: ccdf 113d 818b 563d 49fb 573d 6b88 9c3d
00000040: 71d6 99bd c3b3 b23c 9ce9 383d 26c7 26bd
00000050: 350b 35be a0bd bcbd 62a7 8dbd 1700 033d
00000060: 6286 653d 629f 02be 323d 4d3c 7e84 b6bc
00000070: ebfc af3d 7b24 9ebd 5f9e 1cbe c8ef cb3d
00000080: e3d7 923d 02ee d6bc 314f c9bd 0bd6 893d
00000090: 552c 873d 5624 8bbe e140 5d3d 41ed 0bbe
000000a0: fcc7 a43d b89a 17bb 5c8f 0cbd 3a9c 6abe
000000b0: 9c29 b43b 5fa2 2f3d 1f40 40bd 44a4 413e
000000c0: e08f 123d 795c 813d 8fbb 1ebd 8061 47bc
000000d0: b1f2 54be f672 82bd 47ef a23c b90b 2c3c
000000e0: d4e7 aebd 9f28 8fbd 58d5 bf3c c972 703d
000000f0: 7855 bb3d 94f0 e6bd b8ef 1cbc 4be5 86bd
00000100: 88f8 0a3d 724b 1f3e 382b cc3d 90bc 5d3c
00000110: 631a 3bbe 1eea b2bd 1805 7e3d 8c9c 54bd
00000120: ae92 84bd e6c1 c33c 56c0 e83c ae7d e13d
00000130: a78a d93b 6cef 86bc fc2e e0bd 3c67 f9bd
00000140: 44a8 c1bd 088a e6bd 0769 76bd 2592 99bd
00000150: e5f5 44bd 974f 90be 0f69 943d da10 fabd
00000160: a28a 4a3d 21f4 0ebe b7dc 813d 5a1c 293c
00000170: df93 c0bc c541 433d da3c c83c 859c efbc
00000180: 5599 e33c ca84 c83d d207 723c fd12 763d
00000190: 1ba2 583d d9bf 353c 0c6e fcbd f53a 8f3c
000001a0: bfd5 52bd c2e8 b0bd b322 533d 65e6 babd
000001b0: d904 b7bd c24f bbbc ae92 e9bb 4de3 c63d
000001c0: 210f b1bd 6584 ba3d 3e9f 953d 85df 09be
000001d0: 7b1c d43c f79e 93bd d257 b63c 47b8 26bd
000001e0: 65db 39bd e5ae 333d 66c9 87bd d9ca 753d
000001f0: a4df 8dbe 558b 883d 7b68 2ebe 976e 1e3d
00000200: b701 b93c 12e1 c3bd 40bd 123d 9874 b63d
00000210: a987 033d 74e7 26be f043 8d3d 61ad 643d
00000220: 033d acbe b602 bbbd 9037 acbd 170e 743a
00000230: fa43 efbd 7bc6 a5bd 2d2f cc3c cbf3 3e3e
00000240: 6f8b 9fbd 686c b2bd c5c4 8cbe 121d 2fbd
00000250: 3ed4 cdbc d30b 223c 14c5 f83d b289 a7bc
00000260: e5c5 39be d934 7c3e d167 923d 489e f0ba
00000270: 4d43 a3bd cc2d e53c 1b97 7abd 2832 e73d
00000280: 02cb 9d3e 2cb9 babe 1c22 3cbd 2911 34bd
00000290: 3480 f0bd 8569 df3d e106 e0bd 2178 c23e
000002a0: 7aa9 2a3e 7c40 b5bd 177d 243d 2f6c e23d
000002b0: ecfe 1cbe 0298 0f3c 5b05 863e 6bdc c9bd
000002c0: e60a 36be 910f 573e 27e2 253c 715a 923e
000002d0: b0ca 44be d733 0e3e f9b0 6d3c 7cf1 20bd
000002e0: 4851 cebc f01a 2e3c 57cd 8c3d f351 b53d
000002f0: ed49 99bc bc81 62be 8797 973d a2cb 0dbd
00000300: 8081 1a3e 0d05 373e 6844 06bc 38c1 31bd
00000310: 72dc 99bc 2e27 473d 87c6 e73e e7f3 5fbc
00000320: 0454 4cbd f30d acbe 96fc 9abd 735f 1d3e
00000330: 48d8 5abe 646b 033e dc63 413d 366d d43c
00000340: 9414 2b3e 28c5 153d 74ce a1bc 4812 b3bd
00000350: 5fa0 ba3e 1a3e 713e 641f bcbc 1304 41be
00000360: ed85 53be 5bbe 5d3e 26a0 e6bd 981d b2bd
00000370: e598 143c 62ca 6fbd 91b4 9f3e f095 b6bd
00000380: 82ac a3bd 217b 643c 4506 0fbe 4da6 02be
00000390: f37d 9bbd d106 343e 20f4 20bd c11f 08be
000003a0: 21b0 6f3d a3da 30be 4348 82bd 3d2e 083d
000003b0: df70 183e 7fa0 4e3e f807 d83c 8eb8 48be
000003c0: b283 fb3d 6300 223e 7a81 023e d43e 203e
000003d0: 1dfe 23bd 76e8 69bd b24a f53d 8a52 393e
000003e0: 598e 153d f93d d33d a1f8 6e3e 32b8 0d3d
000003f0: b78a a23c fc90 863c 6163 f0bc 8961 8fbc

fc3.bias f4 [2]
0.048412748 -0.11089655
00000000: 724c 463d bb1d e3bd
