agent2_checkpoint_critic.pth (torch_old, 164610 bytes, 5 tensors)

fc1.weight f4 [200, 52]
0	0x3ea2dfb6	0.31811303
1	0x3ea8b3f6	0.329498
2	0xbcebc0a6	-0.028778385
3	0x3e102223	0.14075522
4	0x3e11f235	0.14252551
5	0xbe8582fa	-0.2607649
6	0xbc81ef20	-0.015861094
7	0x3e39c675	0.18142112
8	0x3e90c027	0.282716
9	0x3ea69b09	0.32540157
10	0xbcaccf42	-0.021094922
11	0x3cfd68c0	0.030933738
12	0x3dff45c4	0.124644786
13	0xbec90818	-0.39263988
14	0xbd8bf275	-0.068333544
15	0x3ca2c1a1	0.01986772
16	0x3ed890b5	0.42297903
17	0x3ec30fa6	0.38097876
18	0xbc341bc2	-0.010992946
19	0x3dc2cd82	0.09511854
20	0x3e091409	0.13386549
21	0xbed37d24	-0.41306412
22	0xbbe9ee6a	-0.007139017
23	0x3ceb5252	0.028725777
24	0x3eb47370	0.35244322
25	0x3df17f13	0.117918156
26	0xbbfb3e23	-0.0076673194
27	0x3e518926	0.20462474
28	0xbdc26401	-0.094917305
29	0xbe5bb55e	-0.21455905
30	0x3d39fb05	0.045405407
31	0x3e4502f9	0.19239415
32	0x3eb0fc68	0.3456757
33	0x3e34a3d2	0.17640617
34	0x3d1b8bc4	0.037975088
35	0x3eaff965	0.3436996
36	0xbe0c6d43	-0.13713555
37	0xbe8cadd7	-0.2747638
38	0xbd3dfe61	-0.046385173
39	0x3ebabd8c	0.36472738
40	0x3ead2434	0.33816683
41	0x3e9b899a	0.3037842
42	0xbd3cb957	-0.04607519
43	0x3e9aec56	0.30258435
44	0xbd382ba8	-0.04496351
45	0xbed7811a	-0.42090684
46	0xbd2d8f0c	-0.04237275
47	0x3eb816db	0.35954937
48	0x3d2e45d2	0.042547055
49	0x3eae15ae	0.34000915
50	0x3d41ad0d	0.047284175
51	0x3dcdf499	0.10056419
52	0x3db36fa6	0.087615296
53	0xbe02f2eb	-0.12787978
54	0x3ac55663	0.0015055652
55	0xbeb016d3	-0.34392413
56	0x3e67b3d5	0.22627194
57	0xbe89c5c6	-0.26908702
58	0xbcfe9bb2	-0.0310801
59	0xbe923121	-0.28553107
60	0x3e065cfd	0.1312141
61	0xbcffb739	-0.031215297
62	0x3ce54b89	0.02799012
63	0xbdaddd6c	-0.084894985
64	0x3e8130d5	0.25232568
65	0xbf070372	-0.5273963
66	0x3c27cd4c	0.010241818
67	0xbe1d357d	-0.15352435
68	0x3e1d5961	0.15366127
69	0xbcfdfc2f	-0.03100404
70	0x3d5b9722	0.05361093
71	0xbe08f77a	-0.13375655
72	0x3db95208	0.09048849
73	0xbf4e9e64	-0.80710435
74	0xbc27f680	-0.010251641
75	0xbe04c4b5	-0.12965663
76	0x3f563ad0	0.8368349
77	0x3ead73b2	0.3387733
78	0xbd1b3c8a	-0.03789953
79	0xbdf77b52	-0.12084068
80	0xbe6409d1	-0.2226937
81	0xbea5fc60	-0.3241911
82	0xbcd9a8be	-0.02656972
83	0xbe5629ee	-0.20914432
84	0x3f016ba9	0.505549
85	0x3ebec8ee	0.37262672
86	0xbca179b9	-0.019711362
87	0x3ded7db6	0.11596243
88	0xbe9f0566	-0.31058806
89	0xbf10f2b6	-0.5662035
90	0xbccc0547	-0.02490486
91	0x3dbdbb30	0.09264219
92	0x3eab2e3e	0.33433717
93	0x3eac57c8	0.33660722
94	0xbd55504b	-0.052078526
95	0xbda56cfc	-0.08077428
96	0xbe127a0e	-0.14304373
97	0xbf3ba485	-0.7329791
98	0x3cae5cb3	0.021284437
99	0xbd5cb172	-0.053880163
100	0xbd5b7500	-0.053578377
101	0xbe43284b	-0.1905834
102	0xbe24d5fc	-0.16097254
103	0x3efd9277	0.49525806
104	0xbe2e88e9	-0.17044415
105	0x3f5f8987	0.87319225
106	0x3d16079d	0.036628354
107	0x3dbc9199	0.09207458
108	0x3d21f28f	0.039537963
109	0xbd12c415	-0.03583153
110	0xbd14c0a8	-0.036316544
111	0x3d83eb71	0.06441391
112	0xbde5039d	-0.1118233
113	0x3f4af5d4	0.79281354
114	0x3d501c9b	0.05080853
115	0x3c0a8635	0.008454849
116	0x3d9f6221	0.077823885
117	0xbeafdff9	-0.34350565
118	0xbd586039	-0.05282614
119	0xbd4fff23	-0.050780427
120	0xbde3e1a0	-0.11127019
121	0x3f856b3b	1.0423349
122	0xbc8b3007	-0.016990675
123	0x3e1f56fa	0.15560523
124	0x3cdecdbe	0.027197715
125	0xbfa0d62b	-1.2565359
126	0xbb56c12b	-0.0032768946
127	0x3dafb8c3	0.085801624
128	0xbdb644ca	-0.08899839
129	0x3eaa926b	0.33314833
130	0x3ca0b68f	0.0196183
131	0xbccf03fd	-0.025270456
132	0x3d44571b	0.047934633
133	0x3d33772f	0.043814834
134	0x3d28a0e2	0.041169055
135	0x3bf406d3	0.0074471026
136	0xbb120e92	-0.0022286517
137	0x3e8a83cd	0.2705368
138	0xbc77c96b	-0.015123705
139	0xbbe7f11d	-0.0070783035
140	0xbc58bb08	-0.0132281855
141	0xbec2f397	-0.3807647
142	0xbcf489ac	-0.029850803
143	0x3cd304cb	0.025759121
144	0xbd368975	-0.044564683
145	0x3e4cedcc	0.20012587
146	0x3cde9133	0.027168846
147	0x3d0e7f22	0.034789212
148	0x3c1c21e0	0.009529561
149	0xbf9665c2	-1.1749804
150	0x3a62b5b3	0.0008648291
151	0x3d8d8ef2	0.0691203
152	0x3f953b35	1.1658694
153	0x3dec945e	0.11551736
154	0x3df32680	0.11872578
155	0xbe2d28f3	-0.16910152
156	0x3c7d825d	0.015472976
157	0x3e835211	0.2564855
158	0xba93dd06	-0.001128108
159	0xbd9be0a1	-0.07611204
160	0xbd76de7c	-0.06027077
161	0x3e56672f	0.20937799
162	0xbb28f0d5	-0.0025778313
163	0xbde815a2	-0.11332251
164	0xbd87d9d7	-0.066333465
165	0x3e2fc3a2	0.17164472
166	0x3d73291c	0.059365377
167	0x3d80f3d0	0.062965035
168	0x3e26b2c3	0.1627913
169	0xbdbc2019	-0.0918581
170	0xbd60058e	-0.054692797
171	0xbd575982	-0.052575596
172	0xbcb1df68	-0.021712974
173	0x3e10ef68	0.14153826
174	0xbd04c6e1	-0.03241623
175	0xbdc8b5c3	-0.09800293
176	0x3ee5d842	0.44891554
177	0xbf0ee74c	-0.5582168
178	0x3cbb791a	0.022884894
179	0x3bccd57a	0.0062510343
180	0xbd866f60	-0.06564212
181	0xbd48097f	-0.04883718
182	0xbc6fe43d	-0.014641819
183	0xbdc7ede7	-0.09762173
184	0xbd205859	-0.039146755
185	0x3e44169c	0.1914925
186	0x3be25359	0.0069069085
187	0xbe0c3006	-0.13690194
188	0x3c9a7dc1	0.018858792
189	0xbdb81bbe	-0.089896664
190	0x3b4427aa	0.0029930868
191	0xbb07c473	-0.0020716458
192	0xbdb39af0	-0.08769786
193	0xbd5209b5	-0.05127879
194	0x3badd9b0	0.0053054914
195	0x3b85d48e	0.0040841764
196	0x3e93c6a6	0.28862494
197	0x3d978eab	0.07400259
198	0x3d04d80f	0.032432612
199	0xbc91f9b8	-0.01781927
200	0xbeeba2c8	-0.4602263
201	0xbf198e28	-0.5998254
202	0xbc2eda61	-0.010672183
203	0xbdf337af	-0.11875855
204	0xbdc8ad19	-0.09798641
205	0xbd827840	-0.06370592
206	0x3fd6b10f	1.6772784
207	0x3f05af83	0.52220935
208	0x3e4222e8	0.18958628
209	0x3e576602	0.21035007
210	0xbd814abc	-0.063130826
211	0x3d219fe8	0.03945914
212	0x3d99dcbf	0.07512807
213	0xbe30ed08	-0.1727792
214	0xbcf2f3f5	-0.029657343
215	0xbd2221e8	-0.039583117
216	0x3e697250	0.22797513
217	0x3e461ef7	0.1934775
218	0xbd6e2962	-0.058144934
219	0xbcdde9cf	-0.027089028
220	0x3d70db6c	0.058803007
221	0xbe045c9e	-0.12925956
222	0xbb8d22be	-0.00430712
223	0xbd2f17bc	-0.042747244
224	0x3e8a1b24	0.26973832
225	0x3df7fb4f	0.1210848
226	0x3d202acf	0.039103325
227	0x3d73bc1d	0.05950557
228	0x3c41f6ff	0.011838674
229	0xbe027257	-0.1273893
230	0xbd562e43	-0.052290212
231	0xbcb73387	-0.022363437
232	0x3e1b3768	0.15157855
233	0x3e0391b5	0.12848552
234	0x3cd6a8c3	0.026203519
235	0x3d824142	0.06360103
236	0xbd8ab99e	-0.06773685
237	0xbe5586bb	-0.20852177
238	0xbd827805	-0.06370548
239	0xbcac812d	-0.02105769
240	0x3e37401a	0.17895547
241	0x3d987768	0.0744465
242	0x3cc6f590	0.024287015
243	0x3c62239d	0.013802436
244	0xbd04d36f	-0.0324282
245	0xbe67e7d5	-0.2264703
246	0xbccda7b6	-0.025104385
247	0x3d44a24a	0.048006333
248	0x3e5a287d	0.21304508
249	0x3e1ff681	0.15621378
250	0xbd62ec8c	-0.05540137
251	0x3d1ba8b8	0.0380027
252	0x3be1535c	0.0068763923
253	0xbe4ebdfc	-0.20189661
254	0x3d3f7a22	0.046747334
255	0xbc617abd	-0.013762173

fc1.bias f4 [200]
0	0xbeedf503	-0.46475992
1	0xbe3ecc52	-0.1863263
2	0x3dec0c2f	0.11525761
3	0xbe65343d	-0.22383209
4	0xbec2f328	-0.38076138
5	0x3dfe9d29	0.1243232
6	0xbe011865	-0.12606962
7	0xbdf6364a	-0.120220736
8	0xbe260ac2	-0.16215041
9	0xbed8a1ed	-0.4231104
10	0xbe69fb2e	-0.22849724
11	0xbe81331c	-0.25234306
12	0xbeb92180	-0.3615837
13	0xbe9a7d99	-0.30173948
14	0xbe51b252	-0.2047818
15	0xbe1a4f38	-0.15069282
16	0xbee0ad3f	-0.43882176
17	0xbe162371	-0.14661957
18	0xbe874729	-0.26421478
19	0xbe5e5eeb	-0.21715896
20	0xbf04f5d1	-0.51937586
21	0xbe340713	-0.17580824
22	0xbf3b710a	-0.7321936
23	0x3eeb2ea6	0.45934027
24	0xbed1eadd	-0.409995
25	0x3e0a829f	0.1352639
26	0xbe84f0e3	-0.25965032
27	0xbebbbb63	-0.36666402
28	0xbee5a533	-0.448526
29	0xbcebf71b	-0.028804353
30	0xbe3f5b39	-0.18687142
31	0xbdca30cd	-0.09872589
32	0x3e2ea14c	0.17053717
33	0xbf3356aa	-0.70054114
34	0xbeee6efa	-0.46569043
35	0xbe179b62	-0.14805368
36	0x3eab2bed	0.3343195
37	0xbe8f137e	-0.2794456
38	0x3dee95a7	0.11649638
39	0xbe719d84	-0.23595244
40	0xbdf3075c	-0.11866638
41	0xbe8634c8	-0.26212144
42	0xbc39015c	-0.011291828
43	0xbe3bcbec	-0.18339509
44	0xbe72b95b	-0.2370352
45	0xbe4d0b0b	-0.20023744
46	0x3d5d629e	0.054049127
47	0xbe1d9e0c	-0.15392321
48	0xbe6cab11	-0.23112132
49	0xbe57564b	-0.21029012
50	0xbef50865	-0.47857967
51	0xbe6de863	-0.2323318
52	0x3b87809f	0.004135206
53	0xbdc0f2bb	-0.09421297
54	0xbee9d269	-0.45668343
55	0xbe334318	-0.17506063
56	0xbdb09372	-0.08621873
57	0xbebe275d	-0.37139407
58	0x3e62d484	0.22151381
59	0xbe7a4c8d	-0.24443264
60	0xbdf808a9	-0.12111027
61	0x3eba4fd6	0.36389035
62	0xbe3578cb	-0.1772186
63	0x3d64151a	0.055684187
64	0xbe2ba2eb	-0.16761367
65	0xbe5b59ac	-0.21420926
66	0x3d84ab0e	0.064779386
67	0xbe3ad57d	-0.18245502
68	0xbf17b43f	-0.5925941
69	0x3f76c9b1	0.96401507
70	0xbe79dfc3	-0.24401765
71	0xbe9f7857	-0.311465
72	0xbe01184c	-0.12606925
73	0xbdb1fa15	-0.086902775
74	0xbe3c961b	-0.18416636
75	0xbdbaac77	-0.09114926
76	0xbed2637e	-0.41091532
77	0x3e0580e5	0.1303745
78	0xbe359119	-0.17731132
79	0xbed1d878	-0.40985465
80	0xbde4a0dd	-0.11163495
81	0xbee3df10	-0.4450612
82	0xbee5f11c	-0.44910514
83	0x3c77fd10	0.015136018
84	0xbe2de443	-0.16981606
85	0xbe21fae8	-0.1581837
86	0xbe89705a	-0.2684353
87	0xbdced370	-0.10098922
88	0xbe44ec4b	-0.19230764
89	0xbe7fa9cf	-0.2496712
90	0xbe8fd302	-0.28090674
91	0xbda13a1a	-0.0787241
92	0x3da811a0	0.08206487
93	0xbeca5e1b	-0.39524922
94	0xbe8205a8	-0.2539494
95	0xbe1b9a8f	-0.15195678
96	0xbe94bbf9	-0.29049662
97	0xbe575469	-0.21028294
98	0xbe8a72f6	-0.27040833
99	0xbec03928	-0.37543607
100	0xbeb5698e	-0.35432094
101	0xbec5a556	-0.38602704
102	0xbeae89e8	-0.3408959
103	0xbe32efe9	-0.17474331
104	0xbdff3f8b	-0.12463292
105	0xbe9c7245	-0.3055593
106	0xbe0e2bff	-0.1388397
107	0xbf1fc1aa	-0.6240488
108	0xbf0fac32	-0.56122124
109	0xbf175f47	-0.59129757
110	0xbe816927	-0.25275537
111	0xbdb18ee3	-0.086698316
112	0xbebdd275	-0.37074628
113	0xbd843ab0	-0.06456506
114	0x3d5a0fb9	0.05323765
115	0xbf0f9e28	-0.561007
116	0xbe1a8d36	-0.1509293
117	0xbeb2f13f	-0.3494968
118	0xbeca22da	-0.39479715
119	0xbd98dbfb	-0.07463833
120	0xbe28c1ac	-0.1648013
121	0xbe01a97a	-0.12662306
122	0xbe531303	-0.20612721
123	0xbe8b6bd9	-0.2723072
124	0xbdef9969	-0.116991825
125	0xbd825849	-0.06364495
126	0xbde663b6	-0.11249487
127	0xbe4edd4a	-0.20201603
128	0xbeff43e6	-0.4985649
129	0xbdbb27bf	-0.0913844
130	0xbf2a2cf4	-0.66474843
131	0x3db3404f	0.087525
132	0x3e51ec09	0.20500197
133	0xbf085329	-0.5325189
134	0x3e3d5274	0.18488485
135	0xbe3f49eb	-0.18680541
136	0xbe2d89ae	-0.16947052
137	0xbe9d39f2	-0.3070827
138	0xbece9e50	-0.40355158
139	0xbe821f5a	-0.25414544
140	0xbea4c292	-0.32179695
141	0xbe6b49ab	-0.22977321
142	0xbdaccb5b	-0.084372245
143	0xbe3687fe	-0.17825314
144	0xbd920461	-0.071297415
145	0xbe2edef7	-0.17077242
146	0xbef1cd45	-0.4722692
147	0xbea512af	-0.32240817
148	0xbe4b028c	-0.1982519
149	0xbed0a02b	-0.40747198
150	0xbdf2d9e2	-0.11857964
151	0xbea7eaf1	-0.32796434
152	0xbefe8760	-0.49712658
153	0xbeb0e6c4	-0.3455106
154	0xbee00312	-0.43752342
155	0xbeadab69	-0.33919838
156	0xbf068a51	-0.52554804
157	0xbe7c97a4	-0.24667221
158	0xbe8b2ab2	-0.2718101
159	0xbe1a4fd8	-0.1506952
160	0x3ecc8e31	0.39952233
161	0xbf55112c	-0.8322933
162	0xbea29292	-0.3175245
163	0xbe2c4954	-0.16824847
164	0x3e79c387	0.24390994
165	0xbda65200	-0.08121109
166	0xbddab428	-0.10678893
167	0xbf0a424c	-0.5400741
168	0xbee92294	-0.45534194
169	0xbf2fcc04	-0.6867068
170	0xbeb251bd	-0.34827986
171	0xbe769ee0	-0.24084044
172	0xbe3ed8c4	-0.18637377
173	0xbe1e2781	-0.15444757
174	0xbe5e15ca	-0.21688
175	0xbd0271e0	-0.03184688
176	0xbebcf61f	-0.36906525
177	0xbeabb78a	-0.33538467
178	0x3cf724e8	0.030168965
179	0xbf24b6f1	-0.64341646
180	0xbe5407b5	-0.20706065
181	0xbf211618	-0.6292434
182	0xbe1cbe9d	-0.15307088
183	0xbf461327	-0.77372974
184	0xbdc7b074	-0.09750453
185	0xbe8ca933	-0.2747284
186	0xbee78272	-0.4521671
187	0xbee96463	-0.455844
188	0x3ec9e5aa	0.39433032
189	0xbe7323cc	-0.23744124
190	0xbe672d43	-0.2257586
191	0xbe877a0d	-0.26460305
192	0xbea19cf3	-0.31565055
193	0xbdce82eb	-0.10083564
194	0xbe29239e	-0.16517493
195	0xbe84cbd6	-0.25936764
196	0xbe820a68	-0.25398564
197	0xbec6b28c	-0.38808095
198	0xbf18d5bb	-0.59701127
199	0xbea54a27	-0.32283136

fc2.weight f4 [150, 200]
0	0xbd829c88	-0.06377512
1	0x3c196438	0.009362273
2	0xbd3def34	-0.0463707
3	0x3c6de06c	0.014518838
4	0xbd4b7b9d	-0.049678434
5	0xbdef0207	-0.116703086
6	0xbdb6ff1c	-0.08935377
7	0xbbe74fb8	-0.0070590638
8	0x3ca14cad	0.019689882
9	0xbdbd5cb2	-0.09246196
10	0xbd197269	-0.037462626
11	0x3d21520c	0.039384887
12	0xbe75fe5f	-0.24022816
13	0xbb2fcbbe	-0.002682432
14	0x3d25a151	0.040437046
15	0xbddbf870	-0.10740745
16	0xbcd32ead	-0.025779093
17	0xbd728b31	-0.059214775
18	0xbc890349	-0.0167252
19	0x3d4e20a0	0.050324082
20	0x3dcf44fe	0.10120581
21	0x3c614a4d	0.013750625
22	0xbdcfdc85	-0.10149483
23	0x3d12ca2b	0.035837334
24	0xbd9ed5ff	-0.0775566
25	0x3be7c922	0.0070735374
26	0x3ce7ff28	0.02831991
27	0xbd3f568b	-0.046713393
28	0x3bdc927e	0.0067313304
29	0xbd7ae560	-0.061253905
30	0xbd94823a	-0.07251401
31	0xbd83d847	-0.06437736
32	0x3be4c09b	0.006980968
33	0xbb9ed27c	-0.004846869
34	0xbc5ecd7b	-0.013598795
35	0xbd635785	-0.055503387
36	0x3cd3c310	0.025849849
37	0xbd0eb11b	-0.03483687
38	0xbdfc2df8	-0.12313455
39	0xbd715fef	-0.05892938
40	0xbd6e2919	-0.058144663
41	0xbd8fca5f	-0.07021021
42	0xbe0d5bad	-0.13804503
43	0xbd82cb56	-0.063864395
44	0xbcb87ac8	-0.022519484
45	0xbc87a099	-0.016556071
46	0xbda6b6a3	-0.08140304
47	0xbdde88ff	-0.10865974
48	0x3d7c2591	0.061559264
49	0x3be99329	0.0071281386
50	0x3d654964	0.055978194
51	0xbd1ee3ee	-0.03879159
52	0xba254aaa	-0.00063053763
53	0x3d5856df	0.05281722
54	0xbe41b281	-0.1891575
55	0x3c071260	0.008244127
56	0x3ceb1e2a	0.028700907
57	0xbcb94421	-0.022615494
58	0x3ac8efb4	0.0015330226
59	0xbdb6da97	-0.089284115
60	0x3cd9542a	0.02652939
61	0x3bee261f	0.007267728
62	0x3d4dc022	0.05023206
63	0xbc567de4	-0.013091538
64	0x3c053efc	0.008132692
65	0x3cef2872	0.02919409
66	0xbddcb820	-0.107773066
67	0x3d6bc1f9	0.057558034
68	0x3b92fd05	0.0044857287
69	0xbe027f51	-0.1274388
70	0xbdc60e23	-0.09670665
71	0xbdd849e4	-0.105609685
72	0xbd80c919	-0.06288356
73	0x3ce30238	0.027711019
74	0x3d8dd55c	0.06925461
75	0xbcfca230	-0.030839056
76	0x3d4a43b7	0.049380984
77	0xbdbefaae	-0.09325157
78	0xbc716439	-0.014733368
79	0xbdab788b	-0.08372601
80	0xbcf86e86	-0.03032614
81	0xbd1f8c29	-0.038952027
82	0xbd7c3553	-0.06157429
83	0x3d91b74a	0.07115038
84	0xbd6ea6f3	-0.058264684
85	0xbdbd08eb	-0.092302166
86	0xbd8c47da	-0.06849642
87	0xbd09efec	-0.033676073
88	0xbc10ebaf	-0.008845254
89	0xbcb25b92	-0.02177218
90	0xbc11f376	-0.008908143
91	0x3d23600a	0.03988651
92	0xbd998663	-0.07496335
93	0xbd770e51	-0.060316388
94	0xbdbf57e3	-0.09342935
95	0xbd9ff28d	-0.07809935
96	0xbde2e0f6	-0.11078064
97	0xbde58ab4	-0.11208096
98	0xbd8a729e	-0.06760143
99	0xbd8580c3	-0.065187
100	0xbc98ade7	-0.01863761
101	0x3c039d2f	0.008033081
102	0xbc6edfc4	-0.014579717
103	0x3d604ccd	0.054760743
104	0xbd9dd923	-0.07707431
105	0x3cf7969c	0.030223183
106	0x3c548147	0.012970275
107	0xbd8c88a5	-0.068620004
108	0xbdab8f76	-0.083769724
109	0xbd2797e7	-0.04091635
110	0xbdbb7b22	-0.09154345
111	0x3d80c16f	0.062868945
112	0x3d13d6a0	0.036093354
113	0xbd4dde66	-0.050260924
114	0xbdcb133b	-0.09915777
115	0x3b1a36d8	0.0023531225
116	0x3d5cf9b1	0.05394906
117	0xbdb04817	-0.086075
118	0x3d1a40a1	0.03765929
119	0x3cffc8db	0.031223705
120	0xbca5f9a2	-0.020260636
121	0xbd7704dc	-0.06030737
122	0xbd1927d5	-0.037391502
123	0xbc67d0ed	-0.014148933
124	0xbd950eb1	-0.07278193
125	0xbd8d4a95	-0.06898991
126	0x3ccc2a91	0.024922641
127	0xbd61b839	-0.05510733
128	0xbdd8ede3	-0.10592248
129	0xbd8203bd	-0.06348369
130	0xbd406017	-0.04696664
131	0x3cd51a6e	0.02601358
132	0x3c80684e	0.015674736
133	0x3bc581ee	0.0060274517
134	0x3c353c82	0.0110617895
135	0xbdac8096	-0.08422963
136	0xbc239fd9	-0.009986841
137	0x3d3fe371	0.046847764
138	0x3d35dd2f	0.04440039
139	0x399864db	0.00029066842
140	0xbd312421	-0.043247346
141	0xbd573b2e	-0.052546673
142	0xbd09a6d5	-0.03360637
143	0xbd8f762a	-0.0700496
144	0xbd7c40c5	-0.061585207
145	0x3d28bd50	0.041196167
146	0xbd1e5e9c	-0.038664445
147	0xbd709166	-0.058732413
148	0x3d5b3802	0.05352021
149	0xbd5540cc	-0.05206375
150	0xbbffa0b5	-0.00780114
151	0xbd7a2aa4	-0.06107582
152	0x3d4d6e56	0.050154053
153	0xbd88b904	-0.06675914
154	0x3ce173e3	0.02752108
155	0x3c7d7119	0.015468859
156	0xbdb308d1	-0.08741916
157	0xbdbecd57	-0.09316509
158	0x3d6aa941	0.05729032
159	0xbd09128e	-0.03346496
160	0xbe02dd60	-0.1277976
161	0xbcdb2cc4	-0.026754744
162	0xbde10c49	-0.10988671
163	0xbdc96f96	-0.098357365
164	0xbd31b780	-0.04338789
165	0xbd2182f0	-0.039431512
166	0xbc9d09ef	-0.019169776
167	0xbca9c80b	-0.02072527
168	0xbd47a2fb	-0.048739415
169	0xbdabf16b	-0.08395656
170	0x3ce6dc99	0.028181361
171	0xbb69e194	-0.0035687434
172	0x3d93839f	0.07202839
173	0xbd1863e3	-0.037204634
174	0xbda13726	-0.07871847
175	0xbbae41f1	-0.0053179194
176	0xbd0d36a1	-0.034475926
177	0xbd65bfe5	-0.056091208
178	0xbc825684	-0.015910394
179	0xbc206c1a	-0.009791398
180	0x3984658a	0.00025252654
181	0xbd68d117	-0.05684003
182	0x3b0b548e	0.0021260115
183	0x3cd6edc5	0.026236424
184	0x3c4e4c0c	0.012591373
185	0xbddc9754	-0.10771051
186	0xbce46e53	-0.027884638
187	0xbd986c4e	-0.074425325
188	0xbe24d94e	-0.1609852
189	0xbd6aa653	-0.057287525
190	0xbd37eea7	-0.04490533
191	0x3c474829	0.0121632
192	0x3b2899bf	0.0025726405
193	0xbd53be6e	-0.05169528
194	0x3dc47110	0.095918775
195	0xbdeafeb3	-0.11474361
196	0xbdffe704	-0.124952346
197	0xbd03dcea	-0.032193102
198	0xbd894b41	-0.06703807
199	0xbd4bfd47	-0.04980209
200	0xbd80fe00	-0.06298447
201	0xbdeff83e	-0.1171727
202	0xbcb32153	-0.021866476
203	0xbdd33475	-0.1031274
204	0x3d4f9956	0.050683342
205	0xbdf05a02	-0.11735918
206	0x3ccbc5b8	0.024874553
207	0x3d3df327	0.046374466
208	0x3d616bf8	0.055034608
209	0xbd76bb89	-0.06023744
210	0x3db63504	0.08896831
211	0x3ced51ac	0.028969608
212	0xbd526af8	-0.051371545
213	0x3ccf95a4	0.025339909
214	0xbd7efc5b	-0.062252384
215	0x3d50f266	0.05101242
216	0xbe04a1ba	-0.12952319
217	0x3c9fadbf	0.019492028
218	0xbdc7917f	-0.09744548
219	0xbd119d90	-0.035550654
220	0x3a307310	0.0006731013
221	0xbda8d9b4	-0.082446486
222	0x3c56577f	0.013082384
223	0xbdca93a0	-0.098914385
224	0xbdc4bc53	-0.096062325
225	0xbda7d7ae	-0.081954345
226	0x3bb73b04	0.005591752
227	0x3d04bc54	0.032406166
228	0x3c1aedc2	0.0094561
229	0xbd99b273	-0.075047396
230	0xbc9dacff	-0.01924753
231	0x3d4082b6	0.046999656
232	0xbdd98199	-0.10620422
233	0xbc73e6a7	-0.014886535
234	0x3bf58297	0.007492374
235	0xbd28b24a	-0.041185655
236	0xbe00d08b	-0.12579553
237	0xbaef2cfa	-0.0018247657
238	0xbd6f49a2	-0.05841983
239	0xbe407fc0	-0.18798733
240	0x3cb501fd	0.022095675
241	0xbdc17a37	-0.09447139
242	0xbd32a408	-0.043613464
243	0xbd8d947e	-0.06913088
244	0x3d06657b	0.032811623
245	0xbdcdc3aa	-0.100470856
246	0x3d1ce9a5	0.03830876
247	0x3b2cd1c9	0.002637016
248	0xbd081b90	-0.03322941
249	0xbd9204f8	-0.07129854
250	0x3c49450e	0.01228453
251	0x3cbaa5cb	0.022784134
252	0xbd967222	-0.07345988
253	0x3d8f3da2	0.069941774
254	0xbda8f708	-0.082502425
255	0xbda63adf	-0.081166975

fc2.bias f4 [150]
0	0xbe1e37eb	-0.15451019
1	0xbd9288ae	-0.07154976
2	0x3e430684	0.19045454
3	0xbd8c51b1	-0.06851519
4	0xbe58f010	-0.21185327
5	0xbe0b4454	-0.13600284
6	0xbda7d3f9	-0.081947275
7	0xbe505dcb	-0.20348279
8	0xbd1b303c	-0.037887797
9	0x3df9882b	0.12184175
10	0xbe94b4d9	-0.29044226
11	0xbe059a2d	-0.13047095
12	0xbdba84d2	-0.09107365
13	0xbdfb979e	-0.12284778
14	0xbdbcf964	-0.09227255
15	0xbeaf9409	-0.3429263
16	0xbe0aa358	-0.13538873
17	0xbda57410	-0.08078778
18	0xbe1f7116	-0.15570483
19	0xbe012444	-0.1261149
20	0xbe1265d9	-0.14296664
21	0xbde4e4e1	-0.11176468
22	0xbe053582	-0.13008693
23	0x3e1d4b56	0.1536077
24	0xbd75793c	-0.05993007
25	0xbe2247fa	-0.1584777
26	0xbd549958	-0.051904052
27	0xbe13de5f	-0.14440297
28	0xbe10071b	-0.1406521
29	0xbe2bc28d	-0.16773434
30	0xbdd5136c	-0.10404095
31	0xbd952ad3	-0.07283559
32	0xbeb0e992	-0.345532
33	0xbe90438c	-0.28176534
34	0xbeb5fbf9	-0.35543802
35	0xbe2a4c1a	-0.16630593
36	0xbe027687	-0.12740527
37	0xbe323a2c	-0.17405003
38	0xbdd86770	-0.10566604
39	0xbd8fe928	-0.07026893
40	0xbe1fb4b1	-0.15596272
41	0x3ea45bde	0.3210134
42	0xbe254380	-0.1613903
43	0xbdb2f072	-0.087372676
44	0x3cb43b4a	0.022000927
45	0xbdb5ec00	-0.08882904
46	0xbe4148da	-0.18875447
47	0x3e26bae8	0.16282237
48	0xbdca50c3	-0.09878685
49	0xbe0a4bbc	-0.13505453
50	0xbe3a9639	-0.18221368
51	0xbe03e4b7	-0.12880217
52	0x3e73f1ff	0.23822783
53	0xbe1fd5ab	-0.15608852
54	0xbe22cc5f	-0.15898274
55	0xbdb9526c	-0.09048924
56	0xbe2c8c1c	-0.16850322
57	0x3ec792bf	0.38979146
58	0xbe250220	-0.16114092
59	0xbe095d40	-0.13414478
60	0xbddf5e9f	-0.109067194
61	0x3ec5caf5	0.38631406
62	0xbdb90182	-0.09033491
63	0xbe478497	-0.19484173
64	0xbe12a942	-0.14322379
65	0x3e16d69c	0.14730304
66	0xbe712180	-0.23547935
67	0xbd0c2c56	-0.03422197
68	0xbddd0c68	-0.10793382
69	0xbe6e9b85	-0.23301513
70	0xbe171526	-0.14754161
71	0xbe2dee18	-0.16985357
72	0xbe811c64	-0.25216973
73	0xbf85b2f4	-1.0445237
74	0xbe4ed1c1	-0.20197202
75	0xbea7dc8a	-0.32785445
76	0xbe169831	-0.14706494
77	0x3e1891f7	0.14899431
78	0xbdcd83af	-0.10034882
79	0xbe159a24	-0.14609581
80	0x3cad53bd	0.021158094
81	0xbe52cb43	-0.2058535
82	0xbe41e51a	-0.18935052
83	0xbdedb58b	-0.11606892
84	0xbeda38ca	-0.42621452
85	0xbe1eac51	-0.15495421
86	0x3e84c443	0.25930986
87	0xbe251bf1	-0.1612394
88	0xbd63de28	-0.055631787
89	0xbdf5d45d	-0.12003396
90	0xbc6c1a5c	-0.014410581
91	0xbee12926	-0.43976706
92	0xbd9b79a8	-0.075915635
93	0xbe3ebb77	-0.186262
94	0xbd9a256e	-0.075266704
95	0xbe272965	-0.16324385
96	0xbce9cae2	-0.028539125
97	0xbe571cd8	-0.21007097
98	0x3c202b9e	0.009776024
99	0xbe42edbf	-0.19036005
100	0xbd9b80de	-0.07592939
101	0xbe1bddff	-0.15221404
102	0xbd8fb89e	-0.07017635
103	0xbda605d8	-0.08106583
104	0xbeac05a4	-0.33598053
105	0xbe4a8070	-0.19775558
106	0xbdff750b	-0.12473496
107	0xbdef3adc	-0.116811484
108	0xbe24b1dc	-0.16083473
109	0xbe1f6da0	-0.15569162
110	0xbde21a7c	-0.11040208
111	0xbe389bb2	-0.18028143
112	0xbe04babe	-0.12961861
113	0xbdbc68ef	-0.09199702
114	0xbe4f2437	-0.20228659
115	0x3f18d706	0.597031
116	0xbdef12a5	-0.11673478
117	0xbd555a7d	-0.05208825
118	0xbe57ad6d	-0.2106225
119	0xbe7cc2e7	-0.24683724
120	0xbe05cbb6	-0.13065991
121	0xbe0443a2	-0.12916425
122	0xbe2a6cf6	-0.16643128
123	0xbeb8f678	-0.3612554
124	0xbdb2b529	-0.0872596
125	0xbe805e39	-0.25071886
126	0xbe4fbf50	-0.20287824
127	0xbe3ecf48	-0.18633759
128	0xbe28b275	-0.16474326
129	0x3ea26d8d	0.31724206
130	0xbdf2000d	-0.11816416
131	0x3e59aa99	0.21256484
132	0xbdce9432	-0.1008686
133	0xbe158af9	-0.14603795
134	0xbe2e072a	-0.1699492
135	0x3d02969f	0.031881925
136	0xbd9efbd4	-0.07762876
137	0xbdf88495	-0.12134663
138	0xbdccf3f4	-0.10007468
139	0xbd5da2da	-0.054110385
140	0xbdd3724d	-0.103245355
141	0xbe2e049a	-0.16993943
142	0xbe08493f	-0.13309191
143	0xbe5a9fff	-0.21350096
144	0xbdab71ab	-0.0837129
145	0xbe2574fd	-0.16157909
146	0xbe540ad8	-0.20707262
147	0xbda96d60	-0.08272815
148	0xbe008f3c	-0.1255464
149	0xbdd53ef3	-0.10412397

fc3.weight f4 [1, 150]
0	0xbbbc02f5	-0.005737657
1	0x3cbd32cb	0.023095509
2	0xbca9c1b2	-0.020722244
3	0x3ace911d	0.00157598
4	0xbc46c112	-0.0121309925
5	0x3bbd4392	0.0057758773
6	0xbbb53098	-0.0055294745
7	0x3c7da196	0.01548042
8	0x38644252	5.44212e-05
9	0x3c45d583	0.012074831
10	0xbcaff59a	-0.021479417
11	0xbc3c1464	-0.011479471
12	0xbb71eab2	-0.003691357
13	0x3cbb1a8d	0.022839809
14	0x3cf01b7b	0.029309979
15	0xbc9a85a1	-0.018862547
16	0x3ceb1063	0.028694337
17	0xbd0ee827	-0.034889366
18	0xbba8f15f	-0.005155727
19	0xbbb17292	-0.005415269
20	0xbb8b35bc	-0.004248349
21	0x3aa929e1	0.0012906158
22	0x3c2b40d6	0.01045247
23	0xbcb815fe	-0.022471424
24	0x38a1090b	7.6787626e-05
25	0xbb98582a	-0.004649182
26	0x3bc89530	0.0061213
27	0x3cc2f865	0.023800084
28	0x3b9682ba	0.0045932205
29	0xbc08bf27	-0.0083463555
30	0xbc904410	-0.01761058
31	0xbc972614	-0.018450774
32	0xbc05bf58	-0.008163296
33	0x3c5173c2	0.0127839465
34	0xbc8333bc	-0.01601588
35	0xbbe7a1e2	-0.0070688585
36	0xbc85228d	-0.016251827
37	0x3c43c349	0.011948415
38	0xbc84c37a	-0.016206492
39	0xbcc08ac2	-0.023503665
40	0x3ca92f2a	0.020652372
41	0xbc342a18	-0.010996364
42	0x3c5d8328	0.01352004
43	0x3c519f86	0.012794381
44	0x3c4bd15e	0.012440054
45	0xbcddba88	-0.027066484
46	0xbc36ea91	-0.011164323
47	0x3c064c6a	0.0081969295
48	0xbc30a582	-0.010781648
49	0x39950973	0.00028426535
50	0xbca08842	-0.019596223
51	0xbccc9c71	-0.02497694
52	0x3be4e98c	0.006985849
53	0xbabdce18	-0.0014480976
54	0x3c7a7224	0.015286002
55	0x3d015b89	0.031581435
56	0x39fa646e	0.00047758542
57	0xbce38d89	-0.02777745
58	0xbc8b38e9	-0.01699491
59	0xbcb9c2a0	-0.022675812
60	0xbc3d4431	-0.011551903
61	0x3cce05b2	0.0251492
62	0xbbb2f1a5	-0.005460935
63	0xbbd19eb7	-0.006397094
64	0x3a32d024	0.00068211765
65	0x3c26da93	0.010183948
66	0x3bc85577	0.006113704
67	0x3c19e06f	0.009391888
68	0x3b71d88e	0.0036902758
69	0xbcbdd214	-0.023171462
70	0x3ce0643a	0.027391542
71	0xbbd27b20	-0.006423369
72	0xbbb50d50	-0.0055252686
73	0x3c4c7728	0.012479581
74	0xbc9f018c	-0.019409917
75	0xbb442c1f	-0.0029933525
76	0x3974d385	0.0002334845
77	0xbc010394	-0.007874388
78	0x39a01f61	0.00030540957
79	0x3c00b2dc	0.007855143
80	0x3ca7ae38	0.020468816
81	0xbc547067	-0.012966252
82	0x3b7b4cf0	0.003834542
83	0x3caa3409	0.020776765
84	0xbc7d5132	-0.015461253
85	0xbc24172e	-0.010015292
86	0x3c6d1c36	0.014472058
87	0xbb3a64c4	-0.0028441409
88	0x3bd7d66a	0.0065868394
89	0xbb8f34ec	-0.0043703225
90	0xbca61228	-0.02027233
91	0xbafa3b2d	-0.0019091122
92	0x3c19255a	0.009347284
93	0xbc9b93bd	-0.018991346
94	0x3c2e26a3	0.010629329
95	0xba2e3985	-0.00066461443
96	0xbc9e2c04	-0.019308098
97	0xbc88230b	-0.016618272
98	0xbcf22d6d	-0.029562676
99	0xbca071ee	-0.019585576
100	0x3bfbba7f	0.007682144
101	0x3b75d661	0.0037511813
102	0xbc94234c	-0.018083237
103	0x3c102faa	0.0088004265
104	0x3c6e2351	0.014534787
105	0xbbb492ec	-0.0055106785
106	0xbcbb3eb0	-0.02285704
107	0x3c5bd508	0.01341749
108	0x3c1e0fab	0.00964729
109	0xbcbf09a6	-0.02332003
110	0x3d55f6c4	0.052237287
111	0xbd293431	-0.04130954
112	0xbb826c3e	-0.0039801886
113	0xbce5ab9a	-0.028035928
114	0x3c320a6c	0.010866743
115	0x3cb3bc7d	0.021940464
116	0xbc974cd1	-0.018469246
117	0xbbfbcb5b	-0.007684154
118	0x3c8143aa	0.015779335
119	0x3d045965	0.032311816
120	0x3cebf24e	0.028802063
121	0x3c756cfe	0.014979599
122	0xbcdb191b	-0.02674537
123	0x3c8667ed	0.016406978
124	0x3bd501df	0.006500467
125	0xbbe0e84f	-0.006863631
126	0xbb2be6b1	-0.0026230032
127	0xbc8e2b18	-0.017354533
128	0x3c75e9f6	0.015009394
129	0x3bece46b	0.007229378
130	0x3b4956ae	0.003072183
131	0xbcad0b7e	-0.021123644
132	0xbcbed93d	-0.023296947
133	0xbb3c28bd	-0.0028710805
134	0x3c692954	0.014231045
135	0xbcbe6f61	-0.023246469
136	0x3c8ae6d7	0.016955776
137	0xbcd22244	-0.025651105
138	0xba59f3df	-0.00083142327
139	0xbbd00334	-0.006348038
140	0xbc1faef9	-0.009746307
141	0xbcf8fe48	-0.030394688
142	0x3c74491a	0.014910007
143	0x3bf626c8	0.0075119473
144	0xbc45e17b	-0.0120776845
145	0x3a1e5645	0.0006040077
146	0xbd228af0	-0.039683282
147	0x3cf4f22e	0.029900637
148	0xbcb00a0c	-0.021489166
149	0x3ccc3d90	0.024931699
