agent1_checkpoint_actor.pth (torch_old, 142815 bytes, 6 tensors)

fc1.weight f4 [200, 24]
0.04570648 -0.089264065 -0.015477984 -0.005229152 -0.09504194 0.072351485 0.023854882 -0.003501404
0.121574655 -0.12286992 0.028313396 0.044021588 -0.0676693 -0.08330079 0.041997597 -0.006607417
0.11137411 -0.20326638 0.06199725 -0.0071855467 -0.15229571 -0.26310113 0.057546712 0.013523899
0.07548307 -0.20038943 -0.012696925 0.017261516 -0.031726293 -0.07881067 0.0037443952 0.09539562
0.07542122 -0.14090776 0.051432807 0.14612108 -0.07646101 -0.07474018 -0.03183702 0.080748945
0.0146548 -0.12651554 0.02008466 0.17131217 -0.17153491 0.16746177 -0.002527813 0.17255984
0.023181794 -0.1283118 -0.036894675 0.026468147 -0.06645829 0.004995201 0.023325114 -0.07403309
-0.07199087 -0.16778335 0.048986588 0.028513873 -0.17100744 -0.0006381885 -0.01672328 0.029602751
0.027473453 -0.12418612 0.01442546 0.01561076 -0.12020735 0.072477445 0.004507787 0.10463744
0.0048360275 0.07594843 0.03871943 -0.061539244 0.37721413 -0.06260102 -0.028165184 0.021943992
0.022969112 0.01852482 0.00093871827 -0.13113452 0.25381598 -0.0020887686 -0.021105004 -0.08485572
0.012254173 -0.040970996 -0.006897142 0.024382565 0.17174411 0.13190947 -0.018657722 -0.016519306
0.01458533 0.1383718 0.033142075 0.1894622 0.17490263 -0.07998201 -0.03069283 0.07447853
-0.05349261 0.2050925 0.0139278285 -0.07234659 0.18373898 0.0003506761 0.028776422 -0.045514356
0.006822934 0.084352806 -0.088794775 -0.0670978 0.11401303 0.12682787 0.013133727 -0.100866266
0.05245147 0.04809597 0.103968255 -0.059237815 0.059307985 -0.04021195 0.12553123 0.022167176
0.07828722 -0.004283366 -0.018542264 -0.0034482484 -0.053826693 -0.021464886 0.06371861 0.0028553426
-0.0018819583 0.039730046 -0.034961544 0.0010906822 -0.08196865 0.04866596 -0.0077822884 -0.019426249
-0.054924212 -0.110110715 0.0015043725 -0.011465597 -0.08619166 0.09360543 -0.044732522 -0.038042292
-0.06370288 -0.08515003 -0.07170924 0.08083481 -0.021861728 0.102833696 -0.01378504 0.0034465683
0.057637434 -0.08382158 -0.04377632 0.041391384 0.07228212 0.19725443 -0.011887705 -0.01831496
0.0068166046 0.06845188 -0.035132572 -0.06789428 0.2180209 -0.18626375 -0.017149905 -0.0833663
-0.113782786 -0.044678006 -0.035460573 0.0796725 0.30018902 -0.014360772 0.07545926 0.079516076
-0.023980808 -0.005457976 -0.026560547 0.048787124 0.2722439 0.27579328 0.0077165044 0.02323996
0.021344896 -0.079911835 -0.029778669 0.07556343 -0.048193153 -0.028775705 0.063818 0.080329694
0.06959254 -0.02970863 0.011322117 -0.023017045 -0.093507454 0.060195807 -0.025076503 0.08308313
-0.08387479 -0.101470254 -0.020482743 0.14298904 -0.1635639 0.23970304 -0.003775627 0.042978644
-0.0651768 -0.13416286 -0.012772699 0.0016094841 -0.18322079 0.13684258 0.049126357 -0.08598162
-0.012676427 -0.095873065 0.035635002 -0.07871283 0.10624395 0.049681485 -0.03831995 0.05333126
0.024742892 -0.08136521 -0.0024954565 0.024305843 0.27484223 0.08460786 -0.02895089 0.03209916
-0.052136287 0.02464957 -0.030206552 0.006890584 0.026026243 0.0030406464 -0.015412406 0.0021794168
-0.051158227 0.10465356 -0.016881393 -0.006627915 0.03772144 0.089706525 0.031693242 0.0113075385
00000000: b836 3b3d 14d0 b6bd 5f97 7dbc 4e59 abbb
00000010: 59a5 c2bd 042d 943d 506b c33c d077 65bb
00000020: 22fc f83d 3aa3 fbbd 7ff1 e73c fb4f 343d
00000030: 3496 8abd 9b99 aabd ac05 2c3d 0883 d8bb
00000040: 1c18 e43d 1025 50be d4f0 7d3d bc74 ebbb
00000050: 68f3 1bbe 31b5 86be 1ab6 6b3d 5893 5d3c
00000060: de96 9a3d e332 4dbe c306 50bc 0668 8d3c
00000070: 6ef3 01bd 7d67 a1bd 8764 753b c75e c33d
00000080: 7176 9a3d 204a 10be 35ab 523d c4a0 153e
00000090: 9797 9cbd 6111 99bd 8967 02bd b45f a53d
000000a0: b01a 703c 4a8d 01be 9688 a43c 756c 2f3e
000000b0: d9a6 2fbe 197b 2b3e aaa9 25bb 87b3 303e
000000c0: bfe7 bd3c 2b64 03be df1e 17bd bad3 d83c
000000d0: 491b 88bd c8ae a33b 4f14 bf3c a99e 97bd
000000e0: f36f 93bd 66cf 2bbe 29a6 483d ed95 e93c
000000f0: 931c 2fbe 1b4c 27ba 43ff 88bc 7881 f23c
00000100: 0210 e13c 4b55 febd c458 6c3c 46c4 7f3c
00000110: 452f f6bd 0e6f 943d 0fb6 933b 274c d63d
00000120: 8a77 9e3b da8a 9b3d 4498 1e3d 9310 7cbd
00000130: 3622 c13e f734 80bd acba e6bc e3c3 b33c
00000140: b829 bc3c 5dc1 973c 5114 763a 2148 06be
00000150: 2bf4 813e b9e3 08bb 67e4 acbc d6c8 adbd
00000160: bac5 483c 34d1 27bd 6c01 e2bb f2bd c73c
00000170: b0dd 2f3e 4713 073e 14d8 98bc 7f53 87bc
00000180: 4ff7 6e3c 56b1 0d3e fcbf 073d 6102 423e
00000190: ad19 333e 9ccd a3bd 886f fbbc 3388 983d
000001a0: 111b 5bbd c503 523e 8c31 643c 732a 94bd
000001b0: 1226 3c3e f3da b739 88bc eb3c 436d 3abd
000001c0: eb92 df3b 2ac1 ac3d 09da b5bd 926a 89bd
000001d0: aa7f e93d 2adf 013e d82e 573c f992 cebd
000001e0: 5ad7 563d 4800 453d 4fed d43d 5aa3 72bd
000001f0: eeec 723d 49b5 24bd 428b 003e f097 b53c
00000200: 0d55 a03d 7a5b 8cbb f2e5 97bc 02fc 61bb
00000210: 6179 5cbd 21d7 afbc e77e 823d b320 3b3b
00000220: 0bac f6ba f9bb 223d d633 0fbd 39f5 8e3a
00000230: 2edf a7bd f555 473d 9102 ffbb cc23 9fbc
00000240: 36f8 60bd ba81 e1bd 5d2e c53a 33da 3bbc
00000250: 4185 b0bd 34b4 bf3d 7339 37bd 3cd2 1bbd
00000260: a876 82bd 2463 aebd 4bdc 92bd b98c a53d
00000270: 5e17 b3bc 799a d23d a6da 61bc d2df 613b
00000280: 3b15 6c3d a6aa abbd cc4e 33bd 038a 293d
00000290: a608 943d 11fd 493e a6c4 42bc 4109 96bc
000002a0: d35d df3b 8030 8c3d 2ce7 0fbd 280c 8bbd
000002b0: df40 5f3e edbb 3ebe f57d 8cbc f3bb aabd
000002c0: f306 e9bd 4900 37bd 1b3f 11bd 562b a33d
000002d0: 60b2 993e 7249 6bbc 628a 9a3d 53d9 a23d
000002e0: 6673 c4bc d2d8 b2bb 8195 d9bc 02d5 473d
000002f0: 8d63 8b3e c734 8d3e bbda fc3b bb61 be3c
00000300: 7edb ae3c d1a8 a3bd 65f2 f3bc 00c1 9a3d
00000310: 2f66 45bd 07bb ebbc 03b3 823d e583 a43d
00000320: 8986 8e3d 835f f3bc 6780 393c 3e8e bcbc
00000330: d680 bfbd e18f 763d 3d6d cdbc 7d27 aa3d
00000340: 8cc6 abbd a3cf cfbd 6dcb a7bc b86b 123e
00000350: 4c7d 27be b774 753e 8270 77bb 600a 303d
00000360: 6a7b 85bd fd61 09be 9544 51bc 53f5 d23a
00000370: 3b9e 3bbe 7620 0c3e b838 493d 2217 b0bd
00000380: cab0 4fbc 1959 c4bd 02f6 113d 3134 a1bd
00000390: 6e96 d93d d07e 4b3d 61f5 1cbd e171 5a3d
000003a0: 9bb1 ca3c cea2 a6bd d08a 23bb 0c1d c73c
000003b0: 1fb8 8c3e e346 ad3d 6b2a edbc 697a 033d
000003c0: dc8c 55bd e5ed c93c bb73 f7bc 68ca e13b
000003d0: fd34 d53c 9545 473b 5184 7cbc 8cd4 0e3b
000003e0: 4a8b 51bd 9b54 d63d d94a 8abc fb2e d9bb
000003f0: cc81 1a3d 0eb8 b73d c6d0 013d 4143 393c

fc1.bias f4 [200]
0.0105519835 0.086596854 0.061658513 -0.1722837 0.078132056 -0.02339804 0.019143024 -0.0021058386
-0.063003056 0.26563692 0.07419414 0.18236938 -0.11973855 -0.20947881 -0.096476845 0.14465763
-0.0037237597 -0.03235834 0.0002125194 0.16393283 0.14187174 0.136528 0.057569027 0.17265071
0.018304111 -0.07195361 0.13306715 -0.19818668 0.15185536 -0.15086724 -0.17219202 -0.0044550938
0.026741397 -0.11509976 0.17177519 0.233593 -0.12875144 0.17207658 0.013553087 -0.06443352
0.06279554 -0.17149279 -0.07060475 0.030829228 0.02483506 -0.10120201 -0.014326741 -0.1233855
0.035321735 0.19996373 -0.09570008 0.14869906 -0.025659386 0.033554915 -0.16771916 -0.2020501
0.10271363 -0.061570417 0.048289943 0.017652066 0.09089235 -0.095271565 0.15206376 -0.11707228
-0.1090333 -0.048354995 -0.24821745 -0.05631814 0.18659246 -0.082993336 -0.015900731 0.14780664
0.15151286 0.2228101 -0.15140142 0.008475207 0.13585171 -0.10381519 0.057330087 0.037513085
0.0019252304 0.10954538 0.08526032 -0.00020663181 0.15169296 0.13601059 0.19344115 -0.06355091
-0.22705464 -0.101263344 -0.17444691 -0.040952478 0.19762823 0.055680826 -0.016612466 -0.28097743
0.17944987 -0.04213205 -0.12283306 -0.19130819 -0.035236474 0.2996923 0.17422755 0.0074053286
-0.16729054 -0.091746144 -0.03977502 -0.14397234 -0.1922114 -0.12281414 -0.14825736 0.13107766
-0.10917849 0.065586284 -0.061807126 -0.10175664 -0.027001012 0.0140418345 0.1831154 0.06571611
0.022299547 -0.079954356 -0.07103402 0.11396056 -0.2898852 0.019784665 -0.10341278 -0.12089991
0.2367713 -0.25906196 -0.1393771 -0.047230132 -0.13727777 0.19579779 -0.068574436 0.074298225
0.11428506 0.043487664 0.18938565 0.10260032 0.06888616 -0.20643176 0.085029855 -0.011090684
0.087892346 -0.14236082 0.16629565 -0.17449155 0.1821797 -0.06500458 -0.04752812 -0.14486973
-0.0063350843 0.004652892 0.120271705 0.17156288 -0.094879 -0.22387646 -0.045020316 0.008728534
-0.087476425 -0.086861216 -0.09719327 -0.24890162 0.17023668 0.05422589 -0.17055008 -0.0488115
0.030980714 -0.21052787 0.13304584 -0.068092495 -0.033517975 -0.08242579 0.10282383 0.022136472
-0.17053962 0.012135201 0.04135489 0.095555805 0.016453717 0.012178958 0.0028286336 0.13460547
-0.041887227 -0.19619611 0.10498761 0.052348077 0.16220355 0.082909174 0.056413658 -0.05982951
0.117998615 0.18187045 -0.1845199 0.14543481 0.021915613 -0.042722553 0.07577446 0.18260324
00000000: 3ae2 2c3c b159 b13d a38d 7c3d 236b 30be
00000010: b303 a03d 3fad bfbc d5d1 9c3c 1c02 0abb
00000020: bf07 81bd 9001 883e 19f3 973d 0abf 3a3e
00000030: 7c39 f5bd 9d81 56be a795 c5bd 2121 143e
00000040: 520a 74bb 2e8a 04bd bed7 5e39 02de 273e
00000050: d346 113e ffcd 0b3e 80cd 6b3d 59cb 303e
00000060: 81f2 953c 6a5c 93bd c142 083e 73f1 4abe
00000070: f97f 1b3e f17c 1abe 1b53 30be 09fc 91bb
00000080: c610 db3c 6cb9 ebbd d6e5 2f3e 0133 6f3e
00000090: 6bd7 03be d834 303e c40d 5e3c b9f5 83bd
000000a0: f39a 803d ce9b 2fbe 3999 90bd 948d fc3c
000000b0: e572 cb3c 0043 cfbd b5ba 6abc 89b1 fcbd
000000c0: 86ad 103d 4bc3 4c3e 67fe c3bd 9144 183e
000000d0: a233 d2bc e170 093d 92be 2bbe 39e6 4ebe
000000e0: 865b d23d 4331 7cbd adcb 453d 119b 903c
000000f0: c525 ba3d bd1d c3bd 9ab6 1b3e 97c3 efbd
00000100: da4c dfbd e30f 46bd b72c 7ebe daad 66bd
00000110: 1812 3f3e 69f8 a9bd 4042 82bc a05a 173e
00000120: 3026 1b3e 5528 643e f908 1bbe 98db 0a3c
00000130: b61c 0b3e 0f9d d4bd f4d2 6a3d 52a7 193d
00000140: 0358 fc3a 5459 e03d f69c ae3d 4eab 58b9
00000150: 6655 1b3e 5c46 0b3e 7015 463e fb26 82bd
00000160: 0381 68be 2863 cfbd 36a2 32be c9bd 27bd
00000170: 0e5f 4a3e 9411 643d de16 88bc 46dc 8fbe
00000180: b5c1 373e a892 2cbd e68f fbbd 4be6 43be
00000190: 1f54 10bd 4571 993e b568 323e 66a8 f23b
000001a0: 364e 2bbe 67e5 bbbd 22eb 22bd 7c6d 13be
000001b0: 11d3 44be fb85 fbbd c7d0 17be 3939 063e
000001c0: f998 dfbd 1a52 863d 7829 7dbd c965 d0bd
000001d0: 3a31 ddbc b90f 663c 9a82 3b3e 2b96 863d
000001e0: 8aad b63c 1cbf a3bd 497a 91bd 2764 e93d
000001f0: d56b 94be 7313 a23c 14ca d3bd 5f9a f7bd
00000200: 2d74 723e c5a3 84be dfb8 0ebe 6274 41bd
00000210: 8b92 0cbe 377f 483e c170 8cbd ab29 983d
00000220: 490e ea3d 1f20 323d 50ee 413e 1e20 d23d
00000230: 3014 8d3d d962 53be 2224 ae3d b3b5 35bc
00000240: e700 b43d 09c7 11be 6849 2a3e eaad 32be
00000250: 518d 3a3e 1f21 85bd d9ac 42bd bb58 14be
00000260: 8a96 cfbb 4977 983b 0351 f63d 2eae 2f3e
00000270: ec4f c2bd df3f 65be 3967 38bd 2002 0f3c
00000280: d726 b3bd 4be4 b1bd 440d c7bd 11e0 7ebe
00000290: 8652 2e3e f81b 5e3d aea4 2ebe 91ee 47bd
000002a0: 44cb fd3c 9e94 57be 2b3d 083e 1474 8bbd
000002b0: 254a 09bd dace a8bd 4d95 d23d 8c57 b53c
000002c0: f0a1 2ebe b9d2 463c bf63 293d c3b2 c33d
000002d0: f2c9 863c 418a 473c 9960 393b 04d6 093e
000002e0: f191 2bbd a2e7 48be be03 d73d f06a 563d
000002f0: b018 263e 49cc a93d 0212 673d ca0f 75bd
00000300: 42a9 f13d 3f3c 3a3e c9f2 3cbe ddec 143e
00000310: 5f88 b33c d8fd 2ebd a42f 9b3d 58fc 3a3e

fc2.weight f4 [150, 200]
-0.075263366 -0.043714076 0.0124715 -0.21663308 -0.2539082 0.01492417 0.09520831 -0.2787726
-0.08364845 0.07315188 -0.08475914 0.030964142 0.04303008 0.040613115 -0.078123346 -0.0019746812
0.033902764 0.21954787 -0.01597289 0.061252665 -0.0011261994 -0.096728064 -0.0005032735 0.03613731
-0.27941892 -0.06588373 0.037004884 0.0077622943 0.038037248 0.039776467 -0.02065214 -0.040054105
0.020609546 -0.042098124 0.06591393 0.035972767 -0.03997759 -0.101472996 -0.06411234 -0.0045698443
0.016493838 -0.05486322 0.051920496 -0.12623496 0.059040025 -0.05832919 -0.08528915 0.02946406
0.032601707 0.043919384 0.039244663 0.010612725 0.0026238288 0.06070926 -0.07451603 0.0888291
0.03618181 -0.011445261 -0.11172432 0.010563754 0.023101252 -0.03846356 -0.07587393 0.045492914
0.061290942 0.07300761 0.028287336 -0.06146743 0.020726329 0.06899705 0.040265437 0.06976249
0.05177818 0.06904418 -0.10628674 0.12518246 -0.16420014 -0.12776294 -0.0664925 0.094042175
-0.20353058 0.03016813 -0.08753746 0.04518091 -0.04181229 0.097002424 -0.06969249 -0.0267212
-0.101789944 -0.020848906 -0.009192993 -0.04005121 0.005003176 0.11444675 -0.05004558 0.00091964
-0.22311908 -0.15786298 0.013174931 -0.053727046 -0.0016304877 0.0528605 -0.008068372 0.19027434
0.07754044 0.2767213 0.008710838 -0.08705619 -0.05136457 0.076932855 0.08820106 -0.027384406
0.10486919 0.10036273 0.080892704 0.047497824 -0.01703613 -0.04674149 -0.027899073 0.067169145
-0.08658312 0.10751301 0.07998756 0.06248901 -0.040288944 0.15273462 0.1200016 0.012844046
-0.04679186 -0.0065115667 0.0061262213 0.06634451 -0.07167469 -0.28232142 0.00046333738 0.026911005
0.071627475 -0.02847683 0.040247373 0.023254938 0.07379541 -0.034051716 0.0032723674 -0.077714115
-0.00018309975 0.18689494 0.041698158 0.086072184 0.04661101 -0.0295115 0.014988451 0.11566906
0.10291995 -0.11271121 0.027881749 0.049801283 -0.03170813 0.033714067 -0.04244719 0.08306402
0.08286635 0.0871888 0.04773702 0.1522352 -0.030303508 -0.02091747 0.056811858 0.060902588
0.016495883 0.076641105 0.009902977 -0.1162118 0.14230146 -0.15296409 -0.1014991 -0.012682981
-0.25344694 0.07354651 -0.18564624 0.05079315 -0.09339115 0.038032543 0.03661579 0.0034742698
-0.01066356 -0.017007574 -0.080542676 0.07490559 -0.092598036 -0.03620644 -0.1727595 0.09275511
0.010717888 -0.009045533 0.09162435 -0.014219961 -0.033368044 -0.10283925 0.07539148 -0.059022445
-0.002029534 0.04385428 -0.074052185 0.093691 0.106479116 -0.0047175814 0.0058749747 0.08953204
0.014828257 0.030968353 0.0043307953 0.034147605 0.076634444 0.0027885432 -0.11016005 0.07507672
0.042132244 0.08157712 0.103990085 -0.028650021 0.10175134 -0.14072725 -0.13264842 0.029171504
0.07063742 -0.054749556 -0.01632721 -0.0242403 -0.12348545 -0.048604175 0.02055716 -0.014957426
0.0009826638 -0.04624239 0.055474512 -0.14925748 -0.022236977 0.020766383 -0.19980654 -0.11732664
0.05702597 0.013725145 0.041892644 0.11335212 0.027577175 0.021420429 0.01572389 0.03321684
0.047381736 -0.12556192 -0.12585686 0.06439148 -0.10117453 -0.0031164302 0.0256007 -0.026158987
00000000: ae23 9abd 880d 33bd 4355 4c3c 10d5 5dbe
00000010: 4100 82be 8284 743c 93fc c23d 48bb 8ebe
00000020: e14f abbd a7d0 953d 3396 adbd 83a8 fd3c
00000030: 4f40 303d f059 263d 22ff 9fbd a769 01bb
00000040: a0dd 0a3d 28d1 603e 94d9 82bc 13e4 7a3d
00000050: fb9c 93ba 5d19 c6bd 1dee 03ba b704 143d
00000060: ff0f 8fbe 0dee 86bd 6f92 173d d85a fe3b
00000070: f2cc 1b3d a6ec 223d ad2e a9bc c60f 24bd
00000080: 5ad5 a83c 156f 2cbd e2fd 863d 2e58 133d
00000090: 8bbf 23bd 13d1 cfbd 554d 83bd a2be 95bb
000000a0: 161e 873c 41b8 60bd 96aa 543d bd43 01be
000000b0: f4d3 713d 97ea 6ebd 14ac aebd 9d5e f13c
000000c0: 5e89 053d d0e4 333d 03bf 203d ffe0 2d3c
000000d0: 8bf4 2b3b 46aa 783d dc9b 98bd 08ec b53d
000000e0: 6133 143d e784 3bbc b8cf e4bd 9813 2d3c
000000f0: d63e bd3c f78b 1dbd ca63 9bbd c756 3a3d
00000100: 360c 7b3d 0485 953d d8ba e73c 46c5 7bbd
00000110: 43ca a93c 534e 8d3d 5fed 243d a3df 8e3d
00000120: 5b15 543d 0967 8d3d ddac d9bd d52f 003e
00000130: 1524 28be 4ad4 02be 382d 88bd 2f99 c03d
00000140: 526a 50be 2723 f73c d746 b3bd 9e0f 393d
00000150: 5d43 2bbd 35a9 c63d f0ba 8ebd 6be6 dabc
00000160: 3f77 d0bd 53cb aabc 359e 16bc bd0c 24bd
00000170: aff1 a33b 0f63 ea3d 98fc 4cbd ff13 713a
00000180: 5479 64be d5a6 21be aadb 573c e410 5cbd
00000190: 17b6 d5ba 4084 583d 3431 04bc 47d7 423e
000001a0: 86cd 9e3d 6aae 8d3e e7b7 0e3c 844a b2bd
000001b0: a863 52bd f98e 9d3d c2a2 b43d 4355 e0bc
000001c0: a8c5 d63d fa8a cd3d 13ab a53d 148d 423d
000001d0: 5b8f 8bbc 0174 3fbd 998c e4bc fa8f 893d
000001e0: 7e52 b1bd c82f dc3d 85d0 a33d 7af4 7f3d
000001f0: 0506 25bd 7766 1c3e 66c3 f53d d56f 523c
00000200: d2a8 3fbd fb5e d5bb 78be c83b a1df 873d
00000210: 2eca 92bd 6f8c 90be 17ec f239 7874 dc3c
00000220: 6db1 923d 3e48 e9bc 6eda 243d 2481 be3c
00000230: 0c22 973d d079 0bbd 3775 563b 9428 9fbd
00000240: 77fe 3fb9 6361 3f3e b0cb 2a3d 9d46 b03d
00000250: 30eb 3e3d 1ac2 f1bc 1f92 753c e6e3 ec3d
00000260: b2c7 d23d 23d5 e6bd 4468 e43c 6efc 4b3d
00000270: 62e0 01bd c317 0a3d 1bdd 2dbd 781d aa3d
00000280: d5b5 a93d 0b90 b23d e587 433d 8be3 1b3e
00000290: 103f f8bc 1d5b abbc 8db3 683d fe74 793d
000002a0: 6022 873c 03f6 9c3d 1940 223c 7400 eebd
000002b0: 79b7 113e 9ea2 1cbe c3de cfbd 47cc 4fbc
000002c0: ccc3 81be 8d9f 963d 0c1a 3ebe 7a0c 503d
000002d0: dc43 bfbd 03c8 1b3d 70fa 153d 93b0 633b
000002e0: 36b6 2ebc 7853 8bbc 8ff3 a4bd 1a68 993d
000002f0: 0aa4 bdbd 344d 14bd dee7 30be 64f6 bd3d
00000300: 159a 2f3c b733 14bc 8ca5 bb3d d7fa 68bc
00000310: eeac 08bd 629d d2bd d966 9a3d 85c1 71bd
00000320: ee01 05bb 8ca0 333d aca8 97bd 11e1 bf3d
00000330: b911 da3d f195 9abb dc82 c03b 935c b73d
00000340: 38f2 723c 58b1 fd3c 58e9 8d3b 5cde 0b3d
00000350: 85f2 9c3d febf 363b 989b e1bd d3c1 993d
00000360: dc92 2c3d e811 a73d c1f8 d43d 73b3 eabc
00000370: 0263 d03d ce1a 10be fdd4 07be 14f9 ee3c
00000380: 5aaa 903d 1241 60bd a4c0 85bc 9893 c6bc
00000390: f1e5 fcbd 2c15 47bd 7d67 a83c fe0f 75bc
000003a0: bacc 803a a968 3dbd 3e39 633d f4d6 18be
000003b0: 522a b6bc 431e aa3c 169a 4cbe f348 f0bd
000003c0: 1094 693d 6edf 603c 9f97 2b3d 2825 e83d
000003d0: 87e9 e13c e579 af3c 63cf 803c 620e 083d
000003e0: 5a13 423d 4e93 00be 9fe0 00be aedf 833d
000003f0: 9834 cfbd 063d 4cbb 8fb8 d13c 5f4b d6bc

fc2.bias f4 [150]
-0.007540011 0.03923218 0.02163218 -0.09292312 -0.032136887 -0.021640204 -0.010868451 -0.031113239
-0.056774817 -0.035286814 -0.0035817968 -0.06649699 0.021290444 0.047989547 0.011137661 -0.01929423
0.05032978 -0.008559469 0.08646221 -0.08115179 -0.0041214544 -0.03763986 -0.047214687 -0.0648206
-0.06816262 0.07488972 -0.0055957604 0.029964318 -0.03656331 -0.033001468 -0.01720494 -0.1179969
0.09131438 0.056798533 0.020750217 -0.013531618 -0.02813379 0.066495925 -0.046864226 0.035569992
-0.029673276 -0.02821056 0.111671336 -0.13337556 -0.024883883 0.046388935 -0.01784811 -0.0094783185
-0.0036317485 -0.016059527 0.13428088 -0.120628476 -0.06545086 0.01758062 0.018679604 -0.0029556486
-0.044661764 0.029243115 0.0978871 0.032197393 -0.02481642 0.07163525 0.0745354 0.08830424
0.020593377 0.010893118 0.00985842 -0.06857688 -0.00015322825 0.0018643719 -0.07356035 -0.03571472
-0.07810962 -0.07724619 -0.06441045 -0.044089403 0.044391043 -0.118122846 0.06170614 -0.038509134
0.0820727 0.082526475 -0.1941549 0.07402296 0.07999832 0.03020115 -0.044109333 -0.053076904
-0.015557631 0.06495213 0.015694246 -0.04506262 -0.0035390751 -0.009680202 -0.059065454 0.003190219
-0.045751713 0.024644835 0.006903649 0.04680586 0.038647532 -0.085005164 -0.062122006 -0.027024595
0.0323355 -0.038176525 0.12745596 0.15412435 -0.103031084 0.00679614 -0.03663276 -0.05727256
-0.0825573 -0.09088746 0.105685666 -0.018476157 -0.06114951 -0.05299466 0.0036729616 0.033723824
0.060994502 0.005860283 0.025371991 -0.053436816 0.07077703 0.033426646 0.034166705 7.4265927e-06
0.14179182 0.058039457 -0.084074326 -0.039517097 0.026857575 0.13579044 -0.015897904 -0.08677939
0.0012923469 0.0971857 -0.07022692 0.06041382 0.010065756 -0.09679461 -0.011453912 -0.048873603
0.07356179 0.015675437 0.08191424 0.004603604 0.03701257 -0.114640854
00000000: 3212 f7bb ecb1 203d f835 b13c 7a4e bebd
00000010: f8a1 03bd cc46 b1bc 9611 32bc 31e1 febc
00000020: b68c 68bd e888 10bd 94bc 6abb 932f 88bd
00000030: 4c69 ae3c b090 443d bc7a 363c ef0e 9ebc
00000040: 9926 4e3d 043d 0cbc 1913 b13d e932 a6bd
00000050: 440d 87bb 412c 1abd 3064 41bd aac0 84bd
00000060: d898 8bbd c85f 993d a45c b7bb bb77 f53c
00000070: 69c3 15bd 8c2c 07bd 60f1 8cbc 5ca8 f1bd
00000080: 0903 bb3d 94a5 683d 5cfc a93c b8b3 5dbc
00000090: d578 e6bc 042f 883d b4f4 3fbd d7b1 113d
000000a0: 5f15 f3bc d519 e7bc f1b3 e43d 9a93 08be
000000b0: 49d9 cbbc 5302 3e3d 3336 92bc f34a 1bbc
000000c0: a102 6ebb 458f 83bc ed80 093e 100c f7bd
000000d0: 1a0b 86bd 3b05 903c f805 993c 8eb3 41bb
000000e0: 41ef 36bd 428f ef3c 0879 c83d 6ae1 033d
000000f0: ce4b cbbc 80b5 923d 04a6 983d dad8 b43d
00000100: 71b3 a83c 0c79 323c 3685 213c 0972 8cbd
00000110: e5ab 20b9 f15d f43a cfa6 96bd 9949 12bd
00000120: f0f7 9fbd 4033 9ebd a0e9 83bd 1797 34bd
00000130: 62d3 353d 64ea f1bd 94bf 7c3d c1bb 1dbd
00000140: bb15 a83d a403 a93d 8bd0 46be 5a99 973d
00000150: 29d6 a33d 6768 f73c fdab 34bd 2b67 59bd
00000160: 6fe5 7ebc 9f05 853d 3891 803c 9593 38bd
00000170: d4ef 67bb b699 1ebc 9eee 71bd fe12 513b
00000180: 2666 3bbd f7e3 c93c 0138 e23b 80b7 3f3d
00000190: e04c 1e3d 3017 aebd a573 7ebd af62 ddbc
000001a0: 3b72 043d fd5e 1cbd d183 023e c6d2 1d3e
000001b0: f601 d3bd 28b2 de3b 3c0c 16bd a296 6abd
000001c0: cd13 a9bd 3423 babd ba71 d83d 4f5b 97bc
000001d0: e977 7abd ee10 59bd 12b6 703b fe21 0a3d
000001e0: 5fd5 793d 9e07 c03b ecd8 cf3c 90e0 5abd
000001f0: 8cf3 903d 61ea 083d 63f2 0b3d f231 f936
00000200: e031 113e c8ba 6d3d 292f acbd aedc 21bd
00000210: 6b04 dc3c a60c 0b3e 523c 82bc 65b9 b1bd
00000220: f763 a93a 4c09 c73d 22d3 8fbd 7b74 773d
00000230: d7ea 243c 413c c6bd 30a9 3bbc b02f 48bd
00000240: 90a7 963d c669 803c a7c2 a73d d4d9 963b
00000250: 7e9a 173d d3c8 eabd

fc3.weight f4 [2, 150]
0.14674783 -0.0816856 0.11750321 -0.032356292 0.012681772 -0.114007264 -0.013897068 -0.13624369
-0.14785782 -0.11767335 -0.0047581573 -0.06297732 -0.059988197 -0.11391896 -0.036450952 -0.054769862
0.09251368 0.04165225 0.030850766 -0.14029361 -0.07337072 -0.018006487 0.10202698 -0.12111189
-0.08672898 -0.01594363 0.007348863 0.03025337 -0.004665979 -0.07926505 -0.005527218 -0.13112807
0.045642838 0.085119195 -0.05539221 -0.088886715 -0.041009553 0.015615381 -0.112470984 -0.047473356
-0.12713341 0.12899749 0.03398466 -0.053482655 -0.14066292 0.0010551526 -0.039439347 0.34030303
-0.0008623239 0.051981203 0.08771199 -0.017869482 -0.04661908 -0.07409907 0.07806032 -0.09549019
-0.008751824 -0.0063719377 0.02530998 -0.060562305 0.12918256 0.08402799 0.071094334 0.06410871
-0.058409065 0.0431621 -0.010742072 -0.14139575 -0.00086159474 0.09886921 0.021002986 -0.07802301
-0.05333588 -0.122569084 -0.15140522 0.14446752 -0.0946529 0.009491305 0.012284451 -0.114361376
0.05761768 -0.08297926 -0.28951597 -0.058169696 -0.007885617 -0.03327411 -0.097053096 -0.13868505
-0.04258801 -0.08424868 0.093268275 -0.010440381 0.022132203 0.00510325 -0.06487398 -0.1210996
-0.10354482 -0.015873872 -0.056194685 -0.0036120568 -0.11409862 -0.05481115 -0.026176017 0.05644416
-0.040651686 -0.043025438 0.088915914 0.109438635 -0.030380191 0.06739389 -0.08851487 -0.093120895
-0.040383194 -0.028490292 0.09016222 -0.034385275 -0.08422278 -0.11112112 0.0068038926 -0.162395
-0.111456156 0.0339041 0.015353137 0.10915176 -0.094290026 -0.1111777 -0.052383184 -0.20802128
0.07550919 0.09653568 -0.095551305 0.13330422 0.09740373 0.069590025 0.009547595 -0.04548757
0.010566448 0.0522374 0.0861952 -0.08774039 -0.010647594 -0.13312568 -0.066635504 -0.058236413
0.09801332 -0.10366354 0.029238177 0.1144143 0.0096019115 -0.024156079 0.0074793217 -0.03740707
0.038422566 0.1927125 0.06580647 -0.09553642 0.19911727 0.015057293 -0.005305908 -0.065289654
-0.071122885 0.10975713 -0.104057156 -0.055594243 -0.1527026 0.19804223 -0.08200288 0.05642489
-0.20379238 -0.04851895 -0.115963854 0.15725808 0.017002966 -0.005929369 -0.051098764 0.1899207
0.120174505 0.024676826 0.15051918 -0.044843122 0.23321615 0.1947483 -0.15913506 -0.017031005
-0.042315852 0.044276882 0.030256066 0.103611715 -0.031030774 0.28542015 -0.009189949 0.016679129
-0.10688566 0.24866381 -0.029167924 0.2692213 0.002636431 -0.084725976 0.12261843 0.05102447
-0.043352194 0.2004073 0.2802479 -0.040518105 -0.07175273 -0.048084743 0.17423084 -0.14112474
-0.13110511 -0.052781425 0.007398937 -0.031990357 -0.22356714 -0.13387646 -0.18077183 0.059059486
0.13977955 0.14542805 0.125006 -0.15252516 0.012561897 0.04579081 -0.05857649 -0.009461338
0.2282585 -0.36957416 -0.045516454 0.13940772 0.078073904 -0.074352816 -0.01839583 0.09576497
0.17446215 -0.104826964 -0.09522084 0.06824455 -0.087819606 -0.04763682 -0.07021948 -0.084928654
0.0050293184 0.15392731 0.07783299 0.08716131 0.032220818 -0.026846617 -0.016229901 0.21116912
-0.013108086 -0.16228065 -0.060906395 -0.05247312 0.09625482 -0.069188975 0.0041476223 -0.12736708
00000000: 1045 163e c84a a7bd 86a5 f03d 0888 04bd
00000010: 35c7 4f3c a47c e9bd 87b0 63bc 7783 0bbe
00000020: 0a68 17be bafe f0bd 51ea 9bbb 41fa 80bd
00000030: 2fb6 75bd 584e e9bd 984d 15bd 5d56 60bd
00000040: d077 bd3d 8d9b 2a3d bfba fc3c 21a9 0fbe
00000050: 6343 96bd 5782 93bc 85f3 d03d 8309 f8bd
00000060: f79e b1bd 379c 82bc bbce f03b ead5 f73c
00000070: 12e5 98bb b755 a2bd aa1d b5bb 7046 06be
00000080: fcf3 3a3d f952 ae3d f1e2 62bd 3d0a b6bd
00000090: a2f9 27bd a8d7 7f3c 3057 e6bd 6c73 42bd
000000a0: 432f 02be eb17 043e 8033 0b3d a110 5bbd
000000b0: f109 10be 0c4d 8a3a 278b 21bd 333c ae3e
000000c0: 940d 62ba 3eea 543d 58a2 b33d 0563 92bc
000000d0: a6f3 3ebd 41c1 97bd 17de 9f3d 5c90 c3bd
000000e0: cf63 0fbc b0cb d0bb e056 cf3c 2e10 78bd
000000f0: 6f48 043e de16 ac3d e899 913d 6d4b 833d
00000100: 583e 6fbd beca 303d 84ff 2fbc 0cca 10be
00000110: a5dc 61ba f17b ca3d 740e ac3c 87ca 9fbd
00000120: b976 5abd 8005 fbbd f809 1bbe 4bef 133e
00000130: 61d9 c1bd 6b81 1b3c b944 493c 4c36 eabd
00000140: 8400 6c3d 08f1 a9bd 703b 94be 5943 6ebd
00000150: ad32 01bc 6f4a 08bd c6c3 c6bd 7403 0ebe
00000160: c470 2ebd 928a acbd 7003 bf3d 220e 2bbc
00000170: 984e b53c 2a39 a73b a6dc 84bd 1103 f8bd
00000180: 4e0f d4bd ec09 82bc 662c 66bd 42b8 6cbb
00000190: 8aac e9bd a881 60bd 166f d6bc fe31 673d
000001a0: 6282 26bd 713b 30bd 8c19 b63d 5d21 e03d
000001b0: e1df f8bc cf05 8a3d 4947 b5bd 2bb6 bebd
000001c0: d968 25bd 7964 e9bc f8a6 b83d 93d7 0cbd
000001d0: fe7c acbd 7893 e3bd 30f3 de3b e04a 26be
000001e0: 2043 e4bd 07df 0a3d b98b 7b3c f58a df3d
000001f0: 211b c1bd 22b1 e3bd c08f 56bd 8803 55be
00000200: 90a4 9a3d 80b4 c53d 67b0 c3bd e780 083e
00000210: 9b7b c73d 3785 8e3d 846d 1c3c 2d51 3abd
00000220: e51e 2d3c e2f6 553d 1c87 b03d 3cb1 b3bd
00000230: 3f73 2ebc 1952 08be 3278 88bd 4e89 6ebd
00000240: 35bb c83d 8d4d d4bd e784 ef3c 0b52 ea3d
00000250: 5651 1d3c f8e2 c5bc 1915 f53b 2838 19bd
00000260: fb60 1d3d 6d56 453e 8bc5 863d 99a8 c3bd
00000270: 66e5 4b3e ddb2 763c 2fdd adbb 95b6 85bd
00000280: e0a8 91bd 59c8 e03d eb1b d5bd cab6 63bd
00000290: 125e 1cbe 95cb 4a3e 20f1 a7bd c91d 673d
000002a0: f3ae 50be cebb 46bd 757e edbd 4308 213e
000002b0: ce49 8b3c 274b c2bb f04c 51bd 927a 423e
000002c0: 0d1e f63d 0e27 ca3c b321 1a3e 6cad 37bd
000002d0: 37d0 6e3e 196c 473e 4df4 22be 9b84 8bbc
000002e0: 6353 2dbd ad5b 353d 92db f73c 6132 d43d
000002f0: 4034 febc 9722 923e 7191 16bc aba2 883c
00000300: dee6 dabd baa1 7e3e 92f1 eebc 60d7 893e
00000310: f9c7 2c3b d084 adbd 5f1f fb3d 09ff 503d
00000320: 1292 31bd 9237 4d3e a77c 8f3e 50f6 25bd
00000330: 18f3 92bd 82f4 44bd 9269 323e 0183 10be
00000340: 6b40 06be 5631 58bd c872 f23b 5208 03bd
00000350: c9ee 64be e916 09be 401c 39be 5ce8 713d
00000360: 5f22 0f3e 17eb 143e 9301 003e 8e2f 1cbe
00000370: 6ad0 4d3c 258f 3b3d e7ed 6fbd ba03 1bbc
00000380: 99bc 693e d338 bdbe 766f 3abd e6c0 0e3e
00000390: 36e5 9f3d 4a46 98bd dab2 96bc 6d20 c43d
000003a0: 35a6 323e 85af d6bd 2503 c3bd ccc3 8b3d
000003b0: c4da b3bd d31e 43bd 3bcf 8fbd 13ef adbd
000003c0: fbcc a43b 1f9f 1d3e e766 9f3d a181 b23d
000003d0: faf9 033d 70ed dbbc 92f4 84bc b83c 583e
000003e0: 4cc3 56bc e62c 26be fc78 79bd 0eee 56bd
000003f0: 3f21 c53d f3b2 8dbd c7e8 873b 846c 02be

fc3.bias f4 [2]
0.03177646 -0.037143003
00000000: 0928 023d 4323 18bd
